{"format": "graph-model", "generatedBy": "2.11.0", "convertedBy": "TensorFlow.js Converter v4.2.0", "signature": {"inputs": {"input_2": {"name": "input_2:0", "dtype": "DT_FLOAT", "tensorShape": {"dim": [{"size": "-1"}, {"size": "180"}, {"size": "180"}, {"size": "3"}]}}}, "outputs": {"predictions": {"name": "Identity:0", "dtype": "DT_FLOAT", "tensorShape": {"dim": [{"size": "-1"}, {"size": "10"}]}}}}, "modelTopology": {"node": [{"name": "StatefulPartitionedCall/inception_v3/mixed0/concat/axis", "op": "Const", "attr": {"dtype": {"type": "DT_INT32"}, "value": {"tensor": {"dtype": "DT_INT32", "tensorShape": {}}}}}, {"name": "StatefulPartitionedCall/inception_v3/mixed1/concat/axis", "op": "Const", "attr": {"value": {"tensor": {"dtype": "DT_INT32", "tensorShape": {}}}, "dtype": {"type": "DT_INT32"}}}, {"name": "StatefulPartitionedCall/inception_v3/mixed2/concat/axis", "op": "Const", "attr": {"dtype": {"type": "DT_INT32"}, "value": {"tensor": {"dtype": "DT_INT32", "tensorShape": {}}}}}, {"name": "StatefulPartitionedCall/inception_v3/mixed3/concat/axis", "op": "Const", "attr": {"dtype": {"type": "DT_INT32"}, "value": {"tensor": {"dtype": "DT_INT32", "tensorShape": {}}}}}, {"name": "StatefulPartitionedCall/inception_v3/mixed4/concat/axis", "op": "Const", "attr": {"dtype": {"type": "DT_INT32"}, "value": {"tensor": {"dtype": "DT_INT32", "tensorShape": {}}}}}, {"name": "StatefulPartitionedCall/inception_v3/mixed5/concat/axis", "op": "Const", "attr": {"dtype": {"type": "DT_INT32"}, "value": {"tensor": {"dtype": "DT_INT32", "tensorShape": {}}}}}, {"name": "StatefulPartitionedCall/inception_v3/mixed6/concat/axis", "op": "Const", "attr": {"dtype": {"type": "DT_INT32"}, "value": {"tensor": {"dtype": "DT_INT32", "tensorShape": {}}}}}, {"name": "StatefulPartitionedCall/inception_v3/mixed7/concat/axis", "op": "Const", "attr": {"dtype": {"type": "DT_INT32"}, "value": {"tensor": {"dtype": "DT_INT32", "tensorShape": {}}}}}, {"name": "StatefulPartitionedCall/inception_v3/mixed8/concat/axis", "op": "Const", "attr": {"value": {"tensor": {"dtype": "DT_INT32", "tensorShape": {}}}, "dtype": {"type": "DT_INT32"}}}, {"name": "StatefulPartitionedCall/inception_v3/mixed9/concat/axis", "op": "Const", "attr": {"value": {"tensor": {"dtype": "DT_INT32", "tensorShape": {}}}, "dtype": {"type": "DT_INT32"}}}, {"name": "StatefulPartitionedCall/inception_v3/mixed10/concat/axis", "op": "Const", "attr": {"value": {"tensor": {"dtype": "DT_INT32", "tensorShape": {}}}, "dtype": {"type": "DT_INT32"}}}, {"name": "StatefulPartitionedCall/inception_v3/avg_pool/Mean/reduction_indices", "op": "Const", "attr": {"dtype": {"type": "DT_INT32"}, "value": {"tensor": {"dtype": "DT_INT32", "tensorShape": {"dim": [{"size": "2"}]}}}}}, {"name": "StatefulPartitionedCall/inception_v3/predictions/MatMul/ReadVariableOp", "op": "Const", "attr": {"dtype": {"type": "DT_FLOAT"}, "value": {"tensor": {"dtype": "DT_FLOAT", "tensorShape": {"dim": [{"size": "2048"}, {"size": "10"}]}}}}}, {"name": "StatefulPartitionedCall/inception_v3/predictions/BiasAdd/ReadVariableOp", "op": "Const", "attr": {"dtype": {"type": "DT_FLOAT"}, "value": {"tensor": {"dtype": "DT_FLOAT", "tensorShape": {"dim": [{"size": "10"}]}}}}}, {"name": "input_2", "op": "Placeholder", "attr": {"shape": {"shape": {"dim": [{"size": "-1"}, {"size": "180"}, {"size": "180"}, {"size": "3"}]}}, "dtype": {"type": "DT_FLOAT"}}}, {"name": "StatefulPartitionedCall/inception_v3/conv2d_94/Conv2D_weights", "op": "Const", "attr": {"dtype": {"type": "DT_FLOAT"}, "value": {"tensor": {"dtype": "DT_FLOAT", "tensorShape": {"dim": [{"size": "3"}, {"size": "3"}, {"size": "3"}, {"size": "32"}]}}}}}, {"name": "StatefulPartitionedCall/inception_v3/conv2d_152/Conv2D_weights", "op": "Const", "attr": {"value": {"tensor": {"dtype": "DT_FLOAT", "tensorShape": {"dim": [{"size": "1"}, {"size": "7"}, {"size": "160"}, {"size": "192"}]}}}, "dtype": {"type": "DT_FLOAT"}}}, {"name": "StatefulPartitionedCall/inception_v3/conv2d_94/Conv2D_bn_offset", "op": "Const", "attr": {"value": {"tensor": {"dtype": "DT_FLOAT", "tensorShape": {"dim": [{"size": "32"}]}}}, "dtype": {"type": "DT_FLOAT"}}}, {"name": "StatefulPartitionedCall/inception_v3/conv2d_173/Conv2D_bn_offset", "op": "Const", "attr": {"dtype": {"type": "DT_FLOAT"}, "value": {"tensor": {"dtype": "DT_FLOAT", "tensorShape": {"dim": [{"size": "384"}]}}}}}, {"name": "StatefulPartitionedCall/inception_v3/conv2d_95/Conv2D_weights", "op": "Const", "attr": {"value": {"tensor": {"dtype": "DT_FLOAT", "tensorShape": {"dim": [{"size": "3"}, {"size": "3"}, {"size": "32"}, {"size": "32"}]}}}, "dtype": {"type": "DT_FLOAT"}}}, {"name": "StatefulPartitionedCall/inception_v3/conv2d_152/Conv2D_bn_offset", "op": "Const", "attr": {"dtype": {"type": "DT_FLOAT"}, "value": {"tensor": {"dtype": "DT_FLOAT", "tensorShape": {"dim": [{"size": "192"}]}}}}}, {"name": "StatefulPartitionedCall/inception_v3/conv2d_95/Conv2D_bn_offset", "op": "Const", "attr": {"dtype": {"type": "DT_FLOAT"}, "value": {"tensor": {"dtype": "DT_FLOAT", "tensorShape": {"dim": [{"size": "32"}]}}}}}, {"name": "StatefulPartitionedCall/inception_v3/conv2d_182/Conv2D_weights", "op": "Const", "attr": {"value": {"tensor": {"dtype": "DT_FLOAT", "tensorShape": {"dim": [{"size": "3"}, {"size": "1"}, {"size": "384"}, {"size": "384"}]}}}, "dtype": {"type": "DT_FLOAT"}}}, {"name": "StatefulPartitionedCall/inception_v3/conv2d_96/Conv2D_weights", "op": "Const", "attr": {"value": {"tensor": {"dtype": "DT_FLOAT", "tensorShape": {"dim": [{"size": "3"}, {"size": "3"}, {"size": "32"}, {"size": "64"}]}}}, "dtype": {"type": "DT_FLOAT"}}}, {"name": "StatefulPartitionedCall/inception_v3/conv2d_96/Conv2D_bn_offset", "op": "Const", "attr": {"value": {"tensor": {"dtype": "DT_FLOAT", "tensorShape": {"dim": [{"size": "64"}]}}}, "dtype": {"type": "DT_FLOAT"}}}, {"name": "StatefulPartitionedCall/inception_v3/conv2d_97/Conv2D_weights", "op": "Const", "attr": {"value": {"tensor": {"dtype": "DT_FLOAT", "tensorShape": {"dim": [{"size": "1"}, {"size": "1"}, {"size": "64"}, {"size": "80"}]}}}, "dtype": {"type": "DT_FLOAT"}}}, {"name": "StatefulPartitionedCall/inception_v3/conv2d_97/Conv2D_bn_offset", "op": "Const", "attr": {"value": {"tensor": {"dtype": "DT_FLOAT", "tensorShape": {"dim": [{"size": "80"}]}}}, "dtype": {"type": "DT_FLOAT"}}}, {"name": "StatefulPartitionedCall/inception_v3/conv2d_154/Conv2D_weights", "op": "Const", "attr": {"dtype": {"type": "DT_FLOAT"}, "value": {"tensor": {"dtype": "DT_FLOAT", "tensorShape": {"dim": [{"size": "1"}, {"size": "1"}, {"size": "768"}, {"size": "192"}]}}}}}, {"name": "StatefulPartitionedCall/inception_v3/conv2d_98/Conv2D_weights", "op": "Const", "attr": {"value": {"tensor": {"dtype": "DT_FLOAT", "tensorShape": {"dim": [{"size": "3"}, {"size": "3"}, {"size": "80"}, {"size": "192"}]}}}, "dtype": {"type": "DT_FLOAT"}}}, {"name": "StatefulPartitionedCall/inception_v3/conv2d_98/Conv2D_bn_offset", "op": "Const", "attr": {"dtype": {"type": "DT_FLOAT"}, "value": {"tensor": {"dtype": "DT_FLOAT", "tensorShape": {"dim": [{"size": "192"}]}}}}}, {"name": "StatefulPartitionedCall/inception_v3/conv2d_154/Conv2D_bn_offset", "op": "Const", "attr": {"dtype": {"type": "DT_FLOAT"}, "value": {"tensor": {"dtype": "DT_FLOAT", "tensorShape": {"dim": [{"size": "192"}]}}}}}, {"name": "StatefulPartitionedCall/inception_v3/conv2d_99/Conv2D_weights", "op": "Const", "attr": {"dtype": {"type": "DT_FLOAT"}, "value": {"tensor": {"dtype": "DT_FLOAT", "tensorShape": {"dim": [{"size": "1"}, {"size": "1"}, {"size": "192"}, {"size": "64"}]}}}}}, {"name": "StatefulPartitionedCall/inception_v3/conv2d_175/Conv2D_weights", "op": "Const", "attr": {"dtype": {"type": "DT_FLOAT"}, "value": {"tensor": {"dtype": "DT_FLOAT", "tensorShape": {"dim": [{"size": "3"}, {"size": "3"}, {"size": "448"}, {"size": "384"}]}}}}}, {"name": "StatefulPartitionedCall/inception_v3/conv2d_99/Conv2D_bn_offset", "op": "Const", "attr": {"dtype": {"type": "DT_FLOAT"}, "value": {"tensor": {"dtype": "DT_FLOAT", "tensorShape": {"dim": [{"size": "64"}]}}}}}, {"name": "StatefulPartitionedCall/inception_v3/conv2d_100/Conv2D_weights", "op": "Const", "attr": {"value": {"tensor": {"dtype": "DT_FLOAT", "tensorShape": {"dim": [{"size": "1"}, {"size": "1"}, {"size": "192"}, {"size": "48"}]}}}, "dtype": {"type": "DT_FLOAT"}}}, {"name": "StatefulPartitionedCall/inception_v3/conv2d_155/Conv2D_weights", "op": "Const", "attr": {"dtype": {"type": "DT_FLOAT"}, "value": {"tensor": {"dtype": "DT_FLOAT", "tensorShape": {"dim": [{"size": "1"}, {"size": "1"}, {"size": "768"}, {"size": "192"}]}}}}}, {"name": "StatefulPartitionedCall/inception_v3/conv2d_100/Conv2D_bn_offset", "op": "Const", "attr": {"dtype": {"type": "DT_FLOAT"}, "value": {"tensor": {"dtype": "DT_FLOAT", "tensorShape": {"dim": [{"size": "48"}]}}}}}, {"name": "StatefulPartitionedCall/inception_v3/conv2d_186/Conv2D_bn_offset", "op": "Const", "attr": {"value": {"tensor": {"dtype": "DT_FLOAT", "tensorShape": {"dim": [{"size": "384"}]}}}, "dtype": {"type": "DT_FLOAT"}}}, {"name": "StatefulPartitionedCall/inception_v3/conv2d_102/Conv2D_weights", "op": "Const", "attr": {"dtype": {"type": "DT_FLOAT"}, "value": {"tensor": {"dtype": "DT_FLOAT", "tensorShape": {"dim": [{"size": "1"}, {"size": "1"}, {"size": "192"}, {"size": "64"}]}}}}}, {"name": "StatefulPartitionedCall/inception_v3/conv2d_155/Conv2D_bn_offset", "op": "Const", "attr": {"dtype": {"type": "DT_FLOAT"}, "value": {"tensor": {"dtype": "DT_FLOAT", "tensorShape": {"dim": [{"size": "192"}]}}}}}, {"name": "StatefulPartitionedCall/inception_v3/conv2d_102/Conv2D_bn_offset", "op": "Const", "attr": {"dtype": {"type": "DT_FLOAT"}, "value": {"tensor": {"dtype": "DT_FLOAT", "tensorShape": {"dim": [{"size": "64"}]}}}}}, {"name": "StatefulPartitionedCall/inception_v3/conv2d_175/Conv2D_bn_offset", "op": "Const", "attr": {"value": {"tensor": {"dtype": "DT_FLOAT", "tensorShape": {"dim": [{"size": "384"}]}}}, "dtype": {"type": "DT_FLOAT"}}}, {"name": "StatefulPartitionedCall/inception_v3/conv2d_105/Conv2D_weights", "op": "Const", "attr": {"value": {"tensor": {"dtype": "DT_FLOAT", "tensorShape": {"dim": [{"size": "1"}, {"size": "1"}, {"size": "192"}, {"size": "32"}]}}}, "dtype": {"type": "DT_FLOAT"}}}, {"name": "StatefulPartitionedCall/inception_v3/conv2d_105/Conv2D_bn_offset", "op": "Const", "attr": {"dtype": {"type": "DT_FLOAT"}, "value": {"tensor": {"dtype": "DT_FLOAT", "tensorShape": {"dim": [{"size": "32"}]}}}}}, {"name": "StatefulPartitionedCall/inception_v3/conv2d_158/Conv2D_weights", "op": "Const", "attr": {"value": {"tensor": {"dtype": "DT_FLOAT", "tensorShape": {"dim": [{"size": "1"}, {"size": "1"}, {"size": "768"}, {"size": "192"}]}}}, "dtype": {"type": "DT_FLOAT"}}}, {"name": "StatefulPartitionedCall/inception_v3/conv2d_101/Conv2D_weights", "op": "Const", "attr": {"dtype": {"type": "DT_FLOAT"}, "value": {"tensor": {"dtype": "DT_FLOAT", "tensorShape": {"dim": [{"size": "5"}, {"size": "5"}, {"size": "48"}, {"size": "64"}]}}}}}, {"name": "StatefulPartitionedCall/inception_v3/conv2d_182/Conv2D_bn_offset", "op": "Const", "attr": {"value": {"tensor": {"dtype": "DT_FLOAT", "tensorShape": {"dim": [{"size": "384"}]}}}, "dtype": {"type": "DT_FLOAT"}}}, {"name": "StatefulPartitionedCall/inception_v3/conv2d_101/Conv2D_bn_offset", "op": "Const", "attr": {"dtype": {"type": "DT_FLOAT"}, "value": {"tensor": {"dtype": "DT_FLOAT", "tensorShape": {"dim": [{"size": "64"}]}}}}}, {"name": "StatefulPartitionedCall/inception_v3/conv2d_158/Conv2D_bn_offset", "op": "Const", "attr": {"dtype": {"type": "DT_FLOAT"}, "value": {"tensor": {"dtype": "DT_FLOAT", "tensorShape": {"dim": [{"size": "192"}]}}}}}, {"name": "StatefulPartitionedCall/inception_v3/conv2d_103/Conv2D_weights", "op": "Const", "attr": {"dtype": {"type": "DT_FLOAT"}, "value": {"tensor": {"dtype": "DT_FLOAT", "tensorShape": {"dim": [{"size": "3"}, {"size": "3"}, {"size": "64"}, {"size": "96"}]}}}}}, {"name": "StatefulPartitionedCall/inception_v3/conv2d_103/Conv2D_bn_offset", "op": "Const", "attr": {"dtype": {"type": "DT_FLOAT"}, "value": {"tensor": {"dtype": "DT_FLOAT", "tensorShape": {"dim": [{"size": "96"}]}}}}}, {"name": "StatefulPartitionedCall/inception_v3/conv2d_104/Conv2D_weights", "op": "Const", "attr": {"value": {"tensor": {"dtype": "DT_FLOAT", "tensorShape": {"dim": [{"size": "3"}, {"size": "3"}, {"size": "96"}, {"size": "96"}]}}}, "dtype": {"type": "DT_FLOAT"}}}, {"name": "StatefulPartitionedCall/inception_v3/conv2d_163/Conv2D_weights", "op": "Const", "attr": {"value": {"tensor": {"dtype": "DT_FLOAT", "tensorShape": {"dim": [{"size": "1"}, {"size": "1"}, {"size": "768"}, {"size": "192"}]}}}, "dtype": {"type": "DT_FLOAT"}}}, {"name": "StatefulPartitionedCall/inception_v3/conv2d_104/Conv2D_bn_offset", "op": "Const", "attr": {"dtype": {"type": "DT_FLOAT"}, "value": {"tensor": {"dtype": "DT_FLOAT", "tensorShape": {"dim": [{"size": "96"}]}}}}}, {"name": "StatefulPartitionedCall/inception_v3/conv2d_176/Conv2D_weights", "op": "Const", "attr": {"value": {"tensor": {"dtype": "DT_FLOAT", "tensorShape": {"dim": [{"size": "1"}, {"size": "3"}, {"size": "384"}, {"size": "384"}]}}}, "dtype": {"type": "DT_FLOAT"}}}, {"name": "StatefulPartitionedCall/inception_v3/conv2d_106/Conv2D_weights", "op": "Const", "attr": {"dtype": {"type": "DT_FLOAT"}, "value": {"tensor": {"dtype": "DT_FLOAT", "tensorShape": {"dim": [{"size": "1"}, {"size": "1"}, {"size": "256"}, {"size": "64"}]}}}}}, {"name": "StatefulPartitionedCall/inception_v3/conv2d_163/Conv2D_bn_offset", "op": "Const", "attr": {"value": {"tensor": {"dtype": "DT_FLOAT", "tensorShape": {"dim": [{"size": "192"}]}}}, "dtype": {"type": "DT_FLOAT"}}}, {"name": "StatefulPartitionedCall/inception_v3/conv2d_106/Conv2D_bn_offset", "op": "Const", "attr": {"value": {"tensor": {"dtype": "DT_FLOAT", "tensorShape": {"dim": [{"size": "64"}]}}}, "dtype": {"type": "DT_FLOAT"}}}, {"name": "StatefulPartitionedCall/inception_v3/conv2d_107/Conv2D_weights", "op": "Const", "attr": {"dtype": {"type": "DT_FLOAT"}, "value": {"tensor": {"dtype": "DT_FLOAT", "tensorShape": {"dim": [{"size": "1"}, {"size": "1"}, {"size": "256"}, {"size": "48"}]}}}}}, {"name": "StatefulPartitionedCall/inception_v3/conv2d_107/Conv2D_bn_offset", "op": "Const", "attr": {"dtype": {"type": "DT_FLOAT"}, "value": {"tensor": {"dtype": "DT_FLOAT", "tensorShape": {"dim": [{"size": "48"}]}}}}}, {"name": "StatefulPartitionedCall/inception_v3/conv2d_156/Conv2D_weights", "op": "Const", "attr": {"dtype": {"type": "DT_FLOAT"}, "value": {"tensor": {"dtype": "DT_FLOAT", "tensorShape": {"dim": [{"size": "1"}, {"size": "7"}, {"size": "192"}, {"size": "192"}]}}}}}, {"name": "StatefulPartitionedCall/inception_v3/conv2d_109/Conv2D_weights", "op": "Const", "attr": {"value": {"tensor": {"dtype": "DT_FLOAT", "tensorShape": {"dim": [{"size": "1"}, {"size": "1"}, {"size": "256"}, {"size": "64"}]}}}, "dtype": {"type": "DT_FLOAT"}}}, {"name": "StatefulPartitionedCall/inception_v3/conv2d_176/Conv2D_bn_offset", "op": "Const", "attr": {"dtype": {"type": "DT_FLOAT"}, "value": {"tensor": {"dtype": "DT_FLOAT", "tensorShape": {"dim": [{"size": "384"}]}}}}}, {"name": "StatefulPartitionedCall/inception_v3/conv2d_109/Conv2D_bn_offset", "op": "Const", "attr": {"dtype": {"type": "DT_FLOAT"}, "value": {"tensor": {"dtype": "DT_FLOAT", "tensorShape": {"dim": [{"size": "64"}]}}}}}, {"name": "StatefulPartitionedCall/inception_v3/conv2d_156/Conv2D_bn_offset", "op": "Const", "attr": {"value": {"tensor": {"dtype": "DT_FLOAT", "tensorShape": {"dim": [{"size": "192"}]}}}, "dtype": {"type": "DT_FLOAT"}}}, {"name": "StatefulPartitionedCall/inception_v3/conv2d_112/Conv2D_weights", "op": "Const", "attr": {"dtype": {"type": "DT_FLOAT"}, "value": {"tensor": {"dtype": "DT_FLOAT", "tensorShape": {"dim": [{"size": "1"}, {"size": "1"}, {"size": "256"}, {"size": "64"}]}}}}}, {"name": "StatefulPartitionedCall/inception_v3/conv2d_112/Conv2D_bn_offset", "op": "Const", "attr": {"dtype": {"type": "DT_FLOAT"}, "value": {"tensor": {"dtype": "DT_FLOAT", "tensorShape": {"dim": [{"size": "64"}]}}}}}, {"name": "StatefulPartitionedCall/inception_v3/conv2d_108/Conv2D_weights", "op": "Const", "attr": {"dtype": {"type": "DT_FLOAT"}, "value": {"tensor": {"dtype": "DT_FLOAT", "tensorShape": {"dim": [{"size": "5"}, {"size": "5"}, {"size": "48"}, {"size": "64"}]}}}}}, {"name": "StatefulPartitionedCall/inception_v3/conv2d_159/Conv2D_weights", "op": "Const", "attr": {"value": {"tensor": {"dtype": "DT_FLOAT", "tensorShape": {"dim": [{"size": "7"}, {"size": "1"}, {"size": "192"}, {"size": "192"}]}}}, "dtype": {"type": "DT_FLOAT"}}}, {"name": "StatefulPartitionedCall/inception_v3/conv2d_108/Conv2D_bn_offset", "op": "Const", "attr": {"value": {"tensor": {"dtype": "DT_FLOAT", "tensorShape": {"dim": [{"size": "64"}]}}}, "dtype": {"type": "DT_FLOAT"}}}, {"name": "StatefulPartitionedCall/inception_v3/conv2d_110/Conv2D_weights", "op": "Const", "attr": {"value": {"tensor": {"dtype": "DT_FLOAT", "tensorShape": {"dim": [{"size": "3"}, {"size": "3"}, {"size": "64"}, {"size": "96"}]}}}, "dtype": {"type": "DT_FLOAT"}}}, {"name": "StatefulPartitionedCall/inception_v3/conv2d_159/Conv2D_bn_offset", "op": "Const", "attr": {"dtype": {"type": "DT_FLOAT"}, "value": {"tensor": {"dtype": "DT_FLOAT", "tensorShape": {"dim": [{"size": "192"}]}}}}}, {"name": "StatefulPartitionedCall/inception_v3/conv2d_110/Conv2D_bn_offset", "op": "Const", "attr": {"dtype": {"type": "DT_FLOAT"}, "value": {"tensor": {"dtype": "DT_FLOAT", "tensorShape": {"dim": [{"size": "96"}]}}}}}, {"name": "StatefulPartitionedCall/inception_v3/conv2d_177/Conv2D_weights", "op": "Const", "attr": {"value": {"tensor": {"dtype": "DT_FLOAT", "tensorShape": {"dim": [{"size": "3"}, {"size": "1"}, {"size": "384"}, {"size": "384"}]}}}, "dtype": {"type": "DT_FLOAT"}}}, {"name": "StatefulPartitionedCall/inception_v3/conv2d_111/Conv2D_weights", "op": "Const", "attr": {"value": {"tensor": {"dtype": "DT_FLOAT", "tensorShape": {"dim": [{"size": "3"}, {"size": "3"}, {"size": "96"}, {"size": "96"}]}}}, "dtype": {"type": "DT_FLOAT"}}}, {"name": "StatefulPartitionedCall/inception_v3/conv2d_111/Conv2D_bn_offset", "op": "Const", "attr": {"dtype": {"type": "DT_FLOAT"}, "value": {"tensor": {"dtype": "DT_FLOAT", "tensorShape": {"dim": [{"size": "96"}]}}}}}, {"name": "StatefulPartitionedCall/inception_v3/conv2d_157/Conv2D_weights", "op": "Const", "attr": {"value": {"tensor": {"dtype": "DT_FLOAT", "tensorShape": {"dim": [{"size": "7"}, {"size": "1"}, {"size": "192"}, {"size": "192"}]}}}, "dtype": {"type": "DT_FLOAT"}}}, {"name": "StatefulPartitionedCall/inception_v3/conv2d_113/Conv2D_weights", "op": "Const", "attr": {"value": {"tensor": {"dtype": "DT_FLOAT", "tensorShape": {"dim": [{"size": "1"}, {"size": "1"}, {"size": "288"}, {"size": "64"}]}}}, "dtype": {"type": "DT_FLOAT"}}}, {"name": "StatefulPartitionedCall/inception_v3/conv2d_184/Conv2D_weights", "op": "Const", "attr": {"dtype": {"type": "DT_FLOAT"}, "value": {"tensor": {"dtype": "DT_FLOAT", "tensorShape": {"dim": [{"size": "3"}, {"size": "3"}, {"size": "448"}, {"size": "384"}]}}}}}, {"name": "StatefulPartitionedCall/inception_v3/conv2d_113/Conv2D_bn_offset", "op": "Const", "attr": {"value": {"tensor": {"dtype": "DT_FLOAT", "tensorShape": {"dim": [{"size": "64"}]}}}, "dtype": {"type": "DT_FLOAT"}}}, {"name": "StatefulPartitionedCall/inception_v3/conv2d_157/Conv2D_bn_offset", "op": "Const", "attr": {"dtype": {"type": "DT_FLOAT"}, "value": {"tensor": {"dtype": "DT_FLOAT", "tensorShape": {"dim": [{"size": "192"}]}}}}}, {"name": "StatefulPartitionedCall/inception_v3/conv2d_114/Conv2D_weights", "op": "Const", "attr": {"value": {"tensor": {"dtype": "DT_FLOAT", "tensorShape": {"dim": [{"size": "1"}, {"size": "1"}, {"size": "288"}, {"size": "48"}]}}}, "dtype": {"type": "DT_FLOAT"}}}, {"name": "StatefulPartitionedCall/inception_v3/conv2d_177/Conv2D_bn_offset", "op": "Const", "attr": {"dtype": {"type": "DT_FLOAT"}, "value": {"tensor": {"dtype": "DT_FLOAT", "tensorShape": {"dim": [{"size": "384"}]}}}}}, {"name": "StatefulPartitionedCall/inception_v3/conv2d_114/Conv2D_bn_offset", "op": "Const", "attr": {"dtype": {"type": "DT_FLOAT"}, "value": {"tensor": {"dtype": "DT_FLOAT", "tensorShape": {"dim": [{"size": "48"}]}}}}}, {"name": "StatefulPartitionedCall/inception_v3/conv2d_116/Conv2D_weights", "op": "Const", "attr": {"dtype": {"type": "DT_FLOAT"}, "value": {"tensor": {"dtype": "DT_FLOAT", "tensorShape": {"dim": [{"size": "1"}, {"size": "1"}, {"size": "288"}, {"size": "64"}]}}}}}, {"name": "StatefulPartitionedCall/inception_v3/conv2d_160/Conv2D_weights", "op": "Const", "attr": {"dtype": {"type": "DT_FLOAT"}, "value": {"tensor": {"dtype": "DT_FLOAT", "tensorShape": {"dim": [{"size": "1"}, {"size": "7"}, {"size": "192"}, {"size": "192"}]}}}}}, {"name": "StatefulPartitionedCall/inception_v3/conv2d_116/Conv2D_bn_offset", "op": "Const", "attr": {"dtype": {"type": "DT_FLOAT"}, "value": {"tensor": {"dtype": "DT_FLOAT", "tensorShape": {"dim": [{"size": "64"}]}}}}}, {"name": "StatefulPartitionedCall/inception_v3/conv2d_119/Conv2D_weights", "op": "Const", "attr": {"dtype": {"type": "DT_FLOAT"}, "value": {"tensor": {"dtype": "DT_FLOAT", "tensorShape": {"dim": [{"size": "1"}, {"size": "1"}, {"size": "288"}, {"size": "64"}]}}}}}, {"name": "StatefulPartitionedCall/inception_v3/conv2d_160/Conv2D_bn_offset", "op": "Const", "attr": {"value": {"tensor": {"dtype": "DT_FLOAT", "tensorShape": {"dim": [{"size": "192"}]}}}, "dtype": {"type": "DT_FLOAT"}}}, {"name": "StatefulPartitionedCall/inception_v3/conv2d_119/Conv2D_bn_offset", "op": "Const", "attr": {"value": {"tensor": {"dtype": "DT_FLOAT", "tensorShape": {"dim": [{"size": "64"}]}}}, "dtype": {"type": "DT_FLOAT"}}}, {"name": "StatefulPartitionedCall/inception_v3/conv2d_115/Conv2D_weights", "op": "Const", "attr": {"value": {"tensor": {"dtype": "DT_FLOAT", "tensorShape": {"dim": [{"size": "5"}, {"size": "5"}, {"size": "48"}, {"size": "64"}]}}}, "dtype": {"type": "DT_FLOAT"}}}, {"name": "StatefulPartitionedCall/inception_v3/conv2d_115/Conv2D_bn_offset", "op": "Const", "attr": {"dtype": {"type": "DT_FLOAT"}, "value": {"tensor": {"dtype": "DT_FLOAT", "tensorShape": {"dim": [{"size": "64"}]}}}}}, {"name": "StatefulPartitionedCall/inception_v3/conv2d_161/Conv2D_weights", "op": "Const", "attr": {"dtype": {"type": "DT_FLOAT"}, "value": {"tensor": {"dtype": "DT_FLOAT", "tensorShape": {"dim": [{"size": "7"}, {"size": "1"}, {"size": "192"}, {"size": "192"}]}}}}}, {"name": "StatefulPartitionedCall/inception_v3/conv2d_117/Conv2D_weights", "op": "Const", "attr": {"value": {"tensor": {"dtype": "DT_FLOAT", "tensorShape": {"dim": [{"size": "3"}, {"size": "3"}, {"size": "64"}, {"size": "96"}]}}}, "dtype": {"type": "DT_FLOAT"}}}, {"name": "StatefulPartitionedCall/inception_v3/conv2d_117/Conv2D_bn_offset", "op": "Const", "attr": {"value": {"tensor": {"dtype": "DT_FLOAT", "tensorShape": {"dim": [{"size": "96"}]}}}, "dtype": {"type": "DT_FLOAT"}}}, {"name": "StatefulPartitionedCall/inception_v3/conv2d_161/Conv2D_bn_offset", "op": "Const", "attr": {"value": {"tensor": {"dtype": "DT_FLOAT", "tensorShape": {"dim": [{"size": "192"}]}}}, "dtype": {"type": "DT_FLOAT"}}}, {"name": "StatefulPartitionedCall/inception_v3/conv2d_118/Conv2D_weights", "op": "Const", "attr": {"value": {"tensor": {"dtype": "DT_FLOAT", "tensorShape": {"dim": [{"size": "3"}, {"size": "3"}, {"size": "96"}, {"size": "96"}]}}}, "dtype": {"type": "DT_FLOAT"}}}, {"name": "StatefulPartitionedCall/inception_v3/conv2d_118/Conv2D_bn_offset", "op": "Const", "attr": {"dtype": {"type": "DT_FLOAT"}, "value": {"tensor": {"dtype": "DT_FLOAT", "tensorShape": {"dim": [{"size": "96"}]}}}}}, {"name": "StatefulPartitionedCall/inception_v3/conv2d_120/Conv2D_weights", "op": "Const", "attr": {"dtype": {"type": "DT_FLOAT"}, "value": {"tensor": {"dtype": "DT_FLOAT", "tensorShape": {"dim": [{"size": "3"}, {"size": "3"}, {"size": "288"}, {"size": "384"}]}}}}}, {"name": "StatefulPartitionedCall/inception_v3/conv2d_162/Conv2D_weights", "op": "Const", "attr": {"value": {"tensor": {"dtype": "DT_FLOAT", "tensorShape": {"dim": [{"size": "1"}, {"size": "7"}, {"size": "192"}, {"size": "192"}]}}}, "dtype": {"type": "DT_FLOAT"}}}, {"name": "StatefulPartitionedCall/inception_v3/conv2d_120/Conv2D_bn_offset", "op": "Const", "attr": {"value": {"tensor": {"dtype": "DT_FLOAT", "tensorShape": {"dim": [{"size": "384"}]}}}, "dtype": {"type": "DT_FLOAT"}}}, {"name": "StatefulPartitionedCall/inception_v3/conv2d_179/Conv2D_weights", "op": "Const", "attr": {"dtype": {"type": "DT_FLOAT"}, "value": {"tensor": {"dtype": "DT_FLOAT", "tensorShape": {"dim": [{"size": "1"}, {"size": "1"}, {"size": "2048"}, {"size": "320"}]}}}}}, {"name": "StatefulPartitionedCall/inception_v3/conv2d_121/Conv2D_weights", "op": "Const", "attr": {"dtype": {"type": "DT_FLOAT"}, "value": {"tensor": {"dtype": "DT_FLOAT", "tensorShape": {"dim": [{"size": "1"}, {"size": "1"}, {"size": "288"}, {"size": "64"}]}}}}}, {"name": "StatefulPartitionedCall/inception_v3/conv2d_162/Conv2D_bn_offset", "op": "Const", "attr": {"dtype": {"type": "DT_FLOAT"}, "value": {"tensor": {"dtype": "DT_FLOAT", "tensorShape": {"dim": [{"size": "192"}]}}}}}, {"name": "StatefulPartitionedCall/inception_v3/conv2d_121/Conv2D_bn_offset", "op": "Const", "attr": {"value": {"tensor": {"dtype": "DT_FLOAT", "tensorShape": {"dim": [{"size": "64"}]}}}, "dtype": {"type": "DT_FLOAT"}}}, {"name": "StatefulPartitionedCall/inception_v3/conv2d_184/Conv2D_bn_offset", "op": "Const", "attr": {"value": {"tensor": {"dtype": "DT_FLOAT", "tensorShape": {"dim": [{"size": "384"}]}}}, "dtype": {"type": "DT_FLOAT"}}}, {"name": "StatefulPartitionedCall/inception_v3/conv2d_122/Conv2D_weights", "op": "Const", "attr": {"dtype": {"type": "DT_FLOAT"}, "value": {"tensor": {"dtype": "DT_FLOAT", "tensorShape": {"dim": [{"size": "3"}, {"size": "3"}, {"size": "64"}, {"size": "96"}]}}}}}, {"name": "StatefulPartitionedCall/inception_v3/conv2d_122/Conv2D_bn_offset", "op": "Const", "attr": {"dtype": {"type": "DT_FLOAT"}, "value": {"tensor": {"dtype": "DT_FLOAT", "tensorShape": {"dim": [{"size": "96"}]}}}}}, {"name": "StatefulPartitionedCall/inception_v3/conv2d_123/Conv2D_weights", "op": "Const", "attr": {"value": {"tensor": {"dtype": "DT_FLOAT", "tensorShape": {"dim": [{"size": "3"}, {"size": "3"}, {"size": "96"}, {"size": "96"}]}}}, "dtype": {"type": "DT_FLOAT"}}}, {"name": "StatefulPartitionedCall/inception_v3/conv2d_123/Conv2D_bn_offset", "op": "Const", "attr": {"value": {"tensor": {"dtype": "DT_FLOAT", "tensorShape": {"dim": [{"size": "96"}]}}}, "dtype": {"type": "DT_FLOAT"}}}, {"name": "StatefulPartitionedCall/inception_v3/conv2d_164/Conv2D_weights", "op": "Const", "attr": {"value": {"tensor": {"dtype": "DT_FLOAT", "tensorShape": {"dim": [{"size": "1"}, {"size": "1"}, {"size": "768"}, {"size": "192"}]}}}, "dtype": {"type": "DT_FLOAT"}}}, {"name": "StatefulPartitionedCall/inception_v3/conv2d_124/Conv2D_weights", "op": "Const", "attr": {"dtype": {"type": "DT_FLOAT"}, "value": {"tensor": {"dtype": "DT_FLOAT", "tensorShape": {"dim": [{"size": "1"}, {"size": "1"}, {"size": "768"}, {"size": "192"}]}}}}}, {"name": "StatefulPartitionedCall/inception_v3/conv2d_179/Conv2D_bn_offset", "op": "Const", "attr": {"dtype": {"type": "DT_FLOAT"}, "value": {"tensor": {"dtype": "DT_FLOAT", "tensorShape": {"dim": [{"size": "320"}]}}}}}, {"name": "StatefulPartitionedCall/inception_v3/conv2d_124/Conv2D_bn_offset", "op": "Const", "attr": {"dtype": {"type": "DT_FLOAT"}, "value": {"tensor": {"dtype": "DT_FLOAT", "tensorShape": {"dim": [{"size": "192"}]}}}}}, {"name": "StatefulPartitionedCall/inception_v3/conv2d_164/Conv2D_bn_offset", "op": "Const", "attr": {"value": {"tensor": {"dtype": "DT_FLOAT", "tensorShape": {"dim": [{"size": "192"}]}}}, "dtype": {"type": "DT_FLOAT"}}}, {"name": "StatefulPartitionedCall/inception_v3/conv2d_125/Conv2D_weights", "op": "Const", "attr": {"dtype": {"type": "DT_FLOAT"}, "value": {"tensor": {"dtype": "DT_FLOAT", "tensorShape": {"dim": [{"size": "1"}, {"size": "1"}, {"size": "768"}, {"size": "128"}]}}}}}, {"name": "StatefulPartitionedCall/inception_v3/conv2d_125/Conv2D_bn_offset", "op": "Const", "attr": {"value": {"tensor": {"dtype": "DT_FLOAT", "tensorShape": {"dim": [{"size": "128"}]}}}, "dtype": {"type": "DT_FLOAT"}}}, {"name": "StatefulPartitionedCall/inception_v3/conv2d_128/Conv2D_weights", "op": "Const", "attr": {"value": {"tensor": {"dtype": "DT_FLOAT", "tensorShape": {"dim": [{"size": "1"}, {"size": "1"}, {"size": "768"}, {"size": "128"}]}}}, "dtype": {"type": "DT_FLOAT"}}}, {"name": "StatefulPartitionedCall/inception_v3/conv2d_166/Conv2D_weights", "op": "Const", "attr": {"value": {"tensor": {"dtype": "DT_FLOAT", "tensorShape": {"dim": [{"size": "1"}, {"size": "1"}, {"size": "768"}, {"size": "192"}]}}}, "dtype": {"type": "DT_FLOAT"}}}, {"name": "StatefulPartitionedCall/inception_v3/conv2d_128/Conv2D_bn_offset", "op": "Const", "attr": {"value": {"tensor": {"dtype": "DT_FLOAT", "tensorShape": {"dim": [{"size": "128"}]}}}, "dtype": {"type": "DT_FLOAT"}}}, {"name": "StatefulPartitionedCall/inception_v3/conv2d_133/Conv2D_weights", "op": "Const", "attr": {"dtype": {"type": "DT_FLOAT"}, "value": {"tensor": {"dtype": "DT_FLOAT", "tensorShape": {"dim": [{"size": "1"}, {"size": "1"}, {"size": "768"}, {"size": "192"}]}}}}}, {"name": "StatefulPartitionedCall/inception_v3/conv2d_166/Conv2D_bn_offset", "op": "Const", "attr": {"value": {"tensor": {"dtype": "DT_FLOAT", "tensorShape": {"dim": [{"size": "192"}]}}}, "dtype": {"type": "DT_FLOAT"}}}, {"name": "StatefulPartitionedCall/inception_v3/conv2d_133/Conv2D_bn_offset", "op": "Const", "attr": {"value": {"tensor": {"dtype": "DT_FLOAT", "tensorShape": {"dim": [{"size": "192"}]}}}, "dtype": {"type": "DT_FLOAT"}}}, {"name": "StatefulPartitionedCall/inception_v3/conv2d_180/Conv2D_weights", "op": "Const", "attr": {"value": {"tensor": {"dtype": "DT_FLOAT", "tensorShape": {"dim": [{"size": "1"}, {"size": "1"}, {"size": "2048"}, {"size": "384"}]}}}, "dtype": {"type": "DT_FLOAT"}}}, {"name": "StatefulPartitionedCall/inception_v3/conv2d_126/Conv2D_weights", "op": "Const", "attr": {"value": {"tensor": {"dtype": "DT_FLOAT", "tensorShape": {"dim": [{"size": "1"}, {"size": "7"}, {"size": "128"}, {"size": "128"}]}}}, "dtype": {"type": "DT_FLOAT"}}}, {"name": "StatefulPartitionedCall/inception_v3/conv2d_126/Conv2D_bn_offset", "op": "Const", "attr": {"dtype": {"type": "DT_FLOAT"}, "value": {"tensor": {"dtype": "DT_FLOAT", "tensorShape": {"dim": [{"size": "128"}]}}}}}, {"name": "StatefulPartitionedCall/inception_v3/conv2d_165/Conv2D_weights", "op": "Const", "attr": {"dtype": {"type": "DT_FLOAT"}, "value": {"tensor": {"dtype": "DT_FLOAT", "tensorShape": {"dim": [{"size": "3"}, {"size": "3"}, {"size": "192"}, {"size": "320"}]}}}}}, {"name": "StatefulPartitionedCall/inception_v3/conv2d_129/Conv2D_weights", "op": "Const", "attr": {"dtype": {"type": "DT_FLOAT"}, "value": {"tensor": {"dtype": "DT_FLOAT", "tensorShape": {"dim": [{"size": "7"}, {"size": "1"}, {"size": "128"}, {"size": "128"}]}}}}}, {"name": "StatefulPartitionedCall/inception_v3/conv2d_129/Conv2D_bn_offset", "op": "Const", "attr": {"value": {"tensor": {"dtype": "DT_FLOAT", "tensorShape": {"dim": [{"size": "128"}]}}}, "dtype": {"type": "DT_FLOAT"}}}, {"name": "StatefulPartitionedCall/inception_v3/conv2d_165/Conv2D_bn_offset", "op": "Const", "attr": {"value": {"tensor": {"dtype": "DT_FLOAT", "tensorShape": {"dim": [{"size": "320"}]}}}, "dtype": {"type": "DT_FLOAT"}}}, {"name": "StatefulPartitionedCall/inception_v3/conv2d_127/Conv2D_weights", "op": "Const", "attr": {"value": {"tensor": {"dtype": "DT_FLOAT", "tensorShape": {"dim": [{"size": "7"}, {"size": "1"}, {"size": "128"}, {"size": "192"}]}}}, "dtype": {"type": "DT_FLOAT"}}}, {"name": "StatefulPartitionedCall/inception_v3/conv2d_180/Conv2D_bn_offset", "op": "Const", "attr": {"dtype": {"type": "DT_FLOAT"}, "value": {"tensor": {"dtype": "DT_FLOAT", "tensorShape": {"dim": [{"size": "384"}]}}}}}, {"name": "StatefulPartitionedCall/inception_v3/conv2d_127/Conv2D_bn_offset", "op": "Const", "attr": {"dtype": {"type": "DT_FLOAT"}, "value": {"tensor": {"dtype": "DT_FLOAT", "tensorShape": {"dim": [{"size": "192"}]}}}}}, {"name": "StatefulPartitionedCall/inception_v3/conv2d_130/Conv2D_weights", "op": "Const", "attr": {"dtype": {"type": "DT_FLOAT"}, "value": {"tensor": {"dtype": "DT_FLOAT", "tensorShape": {"dim": [{"size": "1"}, {"size": "7"}, {"size": "128"}, {"size": "128"}]}}}}}, {"name": "StatefulPartitionedCall/inception_v3/conv2d_167/Conv2D_weights", "op": "Const", "attr": {"dtype": {"type": "DT_FLOAT"}, "value": {"tensor": {"dtype": "DT_FLOAT", "tensorShape": {"dim": [{"size": "1"}, {"size": "7"}, {"size": "192"}, {"size": "192"}]}}}}}, {"name": "StatefulPartitionedCall/inception_v3/conv2d_130/Conv2D_bn_offset", "op": "Const", "attr": {"value": {"tensor": {"dtype": "DT_FLOAT", "tensorShape": {"dim": [{"size": "128"}]}}}, "dtype": {"type": "DT_FLOAT"}}}, {"name": "StatefulPartitionedCall/inception_v3/conv2d_185/Conv2D_weights", "op": "Const", "attr": {"dtype": {"type": "DT_FLOAT"}, "value": {"tensor": {"dtype": "DT_FLOAT", "tensorShape": {"dim": [{"size": "1"}, {"size": "3"}, {"size": "384"}, {"size": "384"}]}}}}}, {"name": "StatefulPartitionedCall/inception_v3/conv2d_131/Conv2D_weights", "op": "Const", "attr": {"dtype": {"type": "DT_FLOAT"}, "value": {"tensor": {"dtype": "DT_FLOAT", "tensorShape": {"dim": [{"size": "7"}, {"size": "1"}, {"size": "128"}, {"size": "128"}]}}}}}, {"name": "StatefulPartitionedCall/inception_v3/conv2d_167/Conv2D_bn_offset", "op": "Const", "attr": {"value": {"tensor": {"dtype": "DT_FLOAT", "tensorShape": {"dim": [{"size": "192"}]}}}, "dtype": {"type": "DT_FLOAT"}}}, {"name": "StatefulPartitionedCall/inception_v3/conv2d_131/Conv2D_bn_offset", "op": "Const", "attr": {"dtype": {"type": "DT_FLOAT"}, "value": {"tensor": {"dtype": "DT_FLOAT", "tensorShape": {"dim": [{"size": "128"}]}}}}}, {"name": "StatefulPartitionedCall/inception_v3/conv2d_132/Conv2D_weights", "op": "Const", "attr": {"dtype": {"type": "DT_FLOAT"}, "value": {"tensor": {"dtype": "DT_FLOAT", "tensorShape": {"dim": [{"size": "1"}, {"size": "7"}, {"size": "128"}, {"size": "192"}]}}}}}, {"name": "StatefulPartitionedCall/inception_v3/conv2d_132/Conv2D_bn_offset", "op": "Const", "attr": {"value": {"tensor": {"dtype": "DT_FLOAT", "tensorShape": {"dim": [{"size": "192"}]}}}, "dtype": {"type": "DT_FLOAT"}}}, {"name": "StatefulPartitionedCall/inception_v3/conv2d_168/Conv2D_weights", "op": "Const", "attr": {"dtype": {"type": "DT_FLOAT"}, "value": {"tensor": {"dtype": "DT_FLOAT", "tensorShape": {"dim": [{"size": "7"}, {"size": "1"}, {"size": "192"}, {"size": "192"}]}}}}}, {"name": "StatefulPartitionedCall/inception_v3/conv2d_134/Conv2D_weights", "op": "Const", "attr": {"value": {"tensor": {"dtype": "DT_FLOAT", "tensorShape": {"dim": [{"size": "1"}, {"size": "1"}, {"size": "768"}, {"size": "192"}]}}}, "dtype": {"type": "DT_FLOAT"}}}, {"name": "StatefulPartitionedCall/inception_v3/conv2d_183/Conv2D_weights", "op": "Const", "attr": {"dtype": {"type": "DT_FLOAT"}, "value": {"tensor": {"dtype": "DT_FLOAT", "tensorShape": {"dim": [{"size": "1"}, {"size": "1"}, {"size": "2048"}, {"size": "448"}]}}}}}, {"name": "StatefulPartitionedCall/inception_v3/conv2d_134/Conv2D_bn_offset", "op": "Const", "attr": {"value": {"tensor": {"dtype": "DT_FLOAT", "tensorShape": {"dim": [{"size": "192"}]}}}, "dtype": {"type": "DT_FLOAT"}}}, {"name": "StatefulPartitionedCall/inception_v3/conv2d_168/Conv2D_bn_offset", "op": "Const", "attr": {"value": {"tensor": {"dtype": "DT_FLOAT", "tensorShape": {"dim": [{"size": "192"}]}}}, "dtype": {"type": "DT_FLOAT"}}}, {"name": "StatefulPartitionedCall/inception_v3/conv2d_135/Conv2D_weights", "op": "Const", "attr": {"value": {"tensor": {"dtype": "DT_FLOAT", "tensorShape": {"dim": [{"size": "1"}, {"size": "1"}, {"size": "768"}, {"size": "160"}]}}}, "dtype": {"type": "DT_FLOAT"}}}, {"name": "StatefulPartitionedCall/inception_v3/conv2d_135/Conv2D_bn_offset", "op": "Const", "attr": {"value": {"tensor": {"dtype": "DT_FLOAT", "tensorShape": {"dim": [{"size": "160"}]}}}, "dtype": {"type": "DT_FLOAT"}}}, {"name": "StatefulPartitionedCall/inception_v3/conv2d_138/Conv2D_weights", "op": "Const", "attr": {"dtype": {"type": "DT_FLOAT"}, "value": {"tensor": {"dtype": "DT_FLOAT", "tensorShape": {"dim": [{"size": "1"}, {"size": "1"}, {"size": "768"}, {"size": "160"}]}}}}}, {"name": "StatefulPartitionedCall/inception_v3/conv2d_169/Conv2D_weights", "op": "Const", "attr": {"value": {"tensor": {"dtype": "DT_FLOAT", "tensorShape": {"dim": [{"size": "3"}, {"size": "3"}, {"size": "192"}, {"size": "192"}]}}}, "dtype": {"type": "DT_FLOAT"}}}, {"name": "StatefulPartitionedCall/inception_v3/conv2d_138/Conv2D_bn_offset", "op": "Const", "attr": {"value": {"tensor": {"dtype": "DT_FLOAT", "tensorShape": {"dim": [{"size": "160"}]}}}, "dtype": {"type": "DT_FLOAT"}}}, {"name": "StatefulPartitionedCall/inception_v3/conv2d_183/Conv2D_bn_offset", "op": "Const", "attr": {"value": {"tensor": {"dtype": "DT_FLOAT", "tensorShape": {"dim": [{"size": "448"}]}}}, "dtype": {"type": "DT_FLOAT"}}}, {"name": "StatefulPartitionedCall/inception_v3/conv2d_143/Conv2D_weights", "op": "Const", "attr": {"dtype": {"type": "DT_FLOAT"}, "value": {"tensor": {"dtype": "DT_FLOAT", "tensorShape": {"dim": [{"size": "1"}, {"size": "1"}, {"size": "768"}, {"size": "192"}]}}}}}, {"name": "StatefulPartitionedCall/inception_v3/conv2d_169/Conv2D_bn_offset", "op": "Const", "attr": {"dtype": {"type": "DT_FLOAT"}, "value": {"tensor": {"dtype": "DT_FLOAT", "tensorShape": {"dim": [{"size": "192"}]}}}}}, {"name": "StatefulPartitionedCall/inception_v3/conv2d_143/Conv2D_bn_offset", "op": "Const", "attr": {"dtype": {"type": "DT_FLOAT"}, "value": {"tensor": {"dtype": "DT_FLOAT", "tensorShape": {"dim": [{"size": "192"}]}}}}}, {"name": "StatefulPartitionedCall/inception_v3/conv2d_185/Conv2D_bn_offset", "op": "Const", "attr": {"value": {"tensor": {"dtype": "DT_FLOAT", "tensorShape": {"dim": [{"size": "384"}]}}}, "dtype": {"type": "DT_FLOAT"}}}, {"name": "StatefulPartitionedCall/inception_v3/conv2d_136/Conv2D_weights", "op": "Const", "attr": {"dtype": {"type": "DT_FLOAT"}, "value": {"tensor": {"dtype": "DT_FLOAT", "tensorShape": {"dim": [{"size": "1"}, {"size": "7"}, {"size": "160"}, {"size": "160"}]}}}}}, {"name": "StatefulPartitionedCall/inception_v3/conv2d_136/Conv2D_bn_offset", "op": "Const", "attr": {"dtype": {"type": "DT_FLOAT"}, "value": {"tensor": {"dtype": "DT_FLOAT", "tensorShape": {"dim": [{"size": "160"}]}}}}}, {"name": "StatefulPartitionedCall/inception_v3/conv2d_139/Conv2D_weights", "op": "Const", "attr": {"dtype": {"type": "DT_FLOAT"}, "value": {"tensor": {"dtype": "DT_FLOAT", "tensorShape": {"dim": [{"size": "7"}, {"size": "1"}, {"size": "160"}, {"size": "160"}]}}}}}, {"name": "StatefulPartitionedCall/inception_v3/conv2d_139/Conv2D_bn_offset", "op": "Const", "attr": {"dtype": {"type": "DT_FLOAT"}, "value": {"tensor": {"dtype": "DT_FLOAT", "tensorShape": {"dim": [{"size": "160"}]}}}}}, {"name": "StatefulPartitionedCall/inception_v3/conv2d_170/Conv2D_weights", "op": "Const", "attr": {"dtype": {"type": "DT_FLOAT"}, "value": {"tensor": {"dtype": "DT_FLOAT", "tensorShape": {"dim": [{"size": "1"}, {"size": "1"}, {"size": "1280"}, {"size": "320"}]}}}}}, {"name": "StatefulPartitionedCall/inception_v3/conv2d_137/Conv2D_weights", "op": "Const", "attr": {"value": {"tensor": {"dtype": "DT_FLOAT", "tensorShape": {"dim": [{"size": "7"}, {"size": "1"}, {"size": "160"}, {"size": "192"}]}}}, "dtype": {"type": "DT_FLOAT"}}}, {"name": "StatefulPartitionedCall/inception_v3/conv2d_137/Conv2D_bn_offset", "op": "Const", "attr": {"value": {"tensor": {"dtype": "DT_FLOAT", "tensorShape": {"dim": [{"size": "192"}]}}}, "dtype": {"type": "DT_FLOAT"}}}, {"name": "StatefulPartitionedCall/inception_v3/conv2d_170/Conv2D_bn_offset", "op": "Const", "attr": {"value": {"tensor": {"dtype": "DT_FLOAT", "tensorShape": {"dim": [{"size": "320"}]}}}, "dtype": {"type": "DT_FLOAT"}}}, {"name": "StatefulPartitionedCall/inception_v3/conv2d_140/Conv2D_weights", "op": "Const", "attr": {"dtype": {"type": "DT_FLOAT"}, "value": {"tensor": {"dtype": "DT_FLOAT", "tensorShape": {"dim": [{"size": "1"}, {"size": "7"}, {"size": "160"}, {"size": "160"}]}}}}}, {"name": "StatefulPartitionedCall/inception_v3/conv2d_187/Conv2D_weights", "op": "Const", "attr": {"value": {"tensor": {"dtype": "DT_FLOAT", "tensorShape": {"dim": [{"size": "1"}, {"size": "1"}, {"size": "2048"}, {"size": "192"}]}}}, "dtype": {"type": "DT_FLOAT"}}}, {"name": "StatefulPartitionedCall/inception_v3/conv2d_140/Conv2D_bn_offset", "op": "Const", "attr": {"value": {"tensor": {"dtype": "DT_FLOAT", "tensorShape": {"dim": [{"size": "160"}]}}}, "dtype": {"type": "DT_FLOAT"}}}, {"name": "StatefulPartitionedCall/inception_v3/conv2d_141/Conv2D_weights", "op": "Const", "attr": {"dtype": {"type": "DT_FLOAT"}, "value": {"tensor": {"dtype": "DT_FLOAT", "tensorShape": {"dim": [{"size": "7"}, {"size": "1"}, {"size": "160"}, {"size": "160"}]}}}}}, {"name": "StatefulPartitionedCall/inception_v3/conv2d_171/Conv2D_weights", "op": "Const", "attr": {"value": {"tensor": {"dtype": "DT_FLOAT", "tensorShape": {"dim": [{"size": "1"}, {"size": "1"}, {"size": "1280"}, {"size": "384"}]}}}, "dtype": {"type": "DT_FLOAT"}}}, {"name": "StatefulPartitionedCall/inception_v3/conv2d_141/Conv2D_bn_offset", "op": "Const", "attr": {"dtype": {"type": "DT_FLOAT"}, "value": {"tensor": {"dtype": "DT_FLOAT", "tensorShape": {"dim": [{"size": "160"}]}}}}}, {"name": "StatefulPartitionedCall/inception_v3/conv2d_142/Conv2D_weights", "op": "Const", "attr": {"dtype": {"type": "DT_FLOAT"}, "value": {"tensor": {"dtype": "DT_FLOAT", "tensorShape": {"dim": [{"size": "1"}, {"size": "7"}, {"size": "160"}, {"size": "192"}]}}}}}, {"name": "StatefulPartitionedCall/inception_v3/conv2d_171/Conv2D_bn_offset", "op": "Const", "attr": {"dtype": {"type": "DT_FLOAT"}, "value": {"tensor": {"dtype": "DT_FLOAT", "tensorShape": {"dim": [{"size": "384"}]}}}}}, {"name": "StatefulPartitionedCall/inception_v3/conv2d_142/Conv2D_bn_offset", "op": "Const", "attr": {"value": {"tensor": {"dtype": "DT_FLOAT", "tensorShape": {"dim": [{"size": "192"}]}}}, "dtype": {"type": "DT_FLOAT"}}}, {"name": "StatefulPartitionedCall/inception_v3/conv2d_187/Conv2D_bn_offset", "op": "Const", "attr": {"value": {"tensor": {"dtype": "DT_FLOAT", "tensorShape": {"dim": [{"size": "192"}]}}}, "dtype": {"type": "DT_FLOAT"}}}, {"name": "StatefulPartitionedCall/inception_v3/conv2d_144/Conv2D_weights", "op": "Const", "attr": {"value": {"tensor": {"dtype": "DT_FLOAT", "tensorShape": {"dim": [{"size": "1"}, {"size": "1"}, {"size": "768"}, {"size": "192"}]}}}, "dtype": {"type": "DT_FLOAT"}}}, {"name": "StatefulPartitionedCall/inception_v3/conv2d_144/Conv2D_bn_offset", "op": "Const", "attr": {"dtype": {"type": "DT_FLOAT"}, "value": {"tensor": {"dtype": "DT_FLOAT", "tensorShape": {"dim": [{"size": "192"}]}}}}}, {"name": "StatefulPartitionedCall/inception_v3/conv2d_174/Conv2D_weights", "op": "Const", "attr": {"value": {"tensor": {"dtype": "DT_FLOAT", "tensorShape": {"dim": [{"size": "1"}, {"size": "1"}, {"size": "1280"}, {"size": "448"}]}}}, "dtype": {"type": "DT_FLOAT"}}}, {"name": "StatefulPartitionedCall/inception_v3/conv2d_145/Conv2D_weights", "op": "Const", "attr": {"value": {"tensor": {"dtype": "DT_FLOAT", "tensorShape": {"dim": [{"size": "1"}, {"size": "1"}, {"size": "768"}, {"size": "160"}]}}}, "dtype": {"type": "DT_FLOAT"}}}, {"name": "StatefulPartitionedCall/inception_v3/conv2d_145/Conv2D_bn_offset", "op": "Const", "attr": {"dtype": {"type": "DT_FLOAT"}, "value": {"tensor": {"dtype": "DT_FLOAT", "tensorShape": {"dim": [{"size": "160"}]}}}}}, {"name": "StatefulPartitionedCall/inception_v3/conv2d_174/Conv2D_bn_offset", "op": "Const", "attr": {"value": {"tensor": {"dtype": "DT_FLOAT", "tensorShape": {"dim": [{"size": "448"}]}}}, "dtype": {"type": "DT_FLOAT"}}}, {"name": "StatefulPartitionedCall/inception_v3/conv2d_148/Conv2D_weights", "op": "Const", "attr": {"value": {"tensor": {"dtype": "DT_FLOAT", "tensorShape": {"dim": [{"size": "1"}, {"size": "1"}, {"size": "768"}, {"size": "160"}]}}}, "dtype": {"type": "DT_FLOAT"}}}, {"name": "StatefulPartitionedCall/inception_v3/conv2d_148/Conv2D_bn_offset", "op": "Const", "attr": {"dtype": {"type": "DT_FLOAT"}, "value": {"tensor": {"dtype": "DT_FLOAT", "tensorShape": {"dim": [{"size": "160"}]}}}}}, {"name": "StatefulPartitionedCall/inception_v3/conv2d_153/Conv2D_weights", "op": "Const", "attr": {"dtype": {"type": "DT_FLOAT"}, "value": {"tensor": {"dtype": "DT_FLOAT", "tensorShape": {"dim": [{"size": "1"}, {"size": "1"}, {"size": "768"}, {"size": "192"}]}}}}}, {"name": "StatefulPartitionedCall/inception_v3/conv2d_178/Conv2D_weights", "op": "Const", "attr": {"value": {"tensor": {"dtype": "DT_FLOAT", "tensorShape": {"dim": [{"size": "1"}, {"size": "1"}, {"size": "1280"}, {"size": "192"}]}}}, "dtype": {"type": "DT_FLOAT"}}}, {"name": "StatefulPartitionedCall/inception_v3/conv2d_153/Conv2D_bn_offset", "op": "Const", "attr": {"dtype": {"type": "DT_FLOAT"}, "value": {"tensor": {"dtype": "DT_FLOAT", "tensorShape": {"dim": [{"size": "192"}]}}}}}, {"name": "StatefulPartitionedCall/inception_v3/conv2d_181/Conv2D_weights", "op": "Const", "attr": {"value": {"tensor": {"dtype": "DT_FLOAT", "tensorShape": {"dim": [{"size": "1"}, {"size": "3"}, {"size": "384"}, {"size": "384"}]}}}, "dtype": {"type": "DT_FLOAT"}}}, {"name": "StatefulPartitionedCall/inception_v3/conv2d_146/Conv2D_weights", "op": "Const", "attr": {"value": {"tensor": {"dtype": "DT_FLOAT", "tensorShape": {"dim": [{"size": "1"}, {"size": "7"}, {"size": "160"}, {"size": "160"}]}}}, "dtype": {"type": "DT_FLOAT"}}}, {"name": "StatefulPartitionedCall/inception_v3/conv2d_178/Conv2D_bn_offset", "op": "Const", "attr": {"dtype": {"type": "DT_FLOAT"}, "value": {"tensor": {"dtype": "DT_FLOAT", "tensorShape": {"dim": [{"size": "192"}]}}}}}, {"name": "StatefulPartitionedCall/inception_v3/conv2d_146/Conv2D_bn_offset", "op": "Const", "attr": {"value": {"tensor": {"dtype": "DT_FLOAT", "tensorShape": {"dim": [{"size": "160"}]}}}, "dtype": {"type": "DT_FLOAT"}}}, {"name": "StatefulPartitionedCall/inception_v3/conv2d_186/Conv2D_weights", "op": "Const", "attr": {"dtype": {"type": "DT_FLOAT"}, "value": {"tensor": {"dtype": "DT_FLOAT", "tensorShape": {"dim": [{"size": "3"}, {"size": "1"}, {"size": "384"}, {"size": "384"}]}}}}}, {"name": "StatefulPartitionedCall/inception_v3/conv2d_149/Conv2D_weights", "op": "Const", "attr": {"value": {"tensor": {"dtype": "DT_FLOAT", "tensorShape": {"dim": [{"size": "7"}, {"size": "1"}, {"size": "160"}, {"size": "160"}]}}}, "dtype": {"type": "DT_FLOAT"}}}, {"name": "StatefulPartitionedCall/inception_v3/conv2d_149/Conv2D_bn_offset", "op": "Const", "attr": {"value": {"tensor": {"dtype": "DT_FLOAT", "tensorShape": {"dim": [{"size": "160"}]}}}, "dtype": {"type": "DT_FLOAT"}}}, {"name": "StatefulPartitionedCall/inception_v3/conv2d_172/Conv2D_weights", "op": "Const", "attr": {"value": {"tensor": {"dtype": "DT_FLOAT", "tensorShape": {"dim": [{"size": "1"}, {"size": "3"}, {"size": "384"}, {"size": "384"}]}}}, "dtype": {"type": "DT_FLOAT"}}}, {"name": "StatefulPartitionedCall/inception_v3/conv2d_147/Conv2D_weights", "op": "Const", "attr": {"dtype": {"type": "DT_FLOAT"}, "value": {"tensor": {"dtype": "DT_FLOAT", "tensorShape": {"dim": [{"size": "7"}, {"size": "1"}, {"size": "160"}, {"size": "192"}]}}}}}, {"name": "StatefulPartitionedCall/inception_v3/conv2d_181/Conv2D_bn_offset", "op": "Const", "attr": {"value": {"tensor": {"dtype": "DT_FLOAT", "tensorShape": {"dim": [{"size": "384"}]}}}, "dtype": {"type": "DT_FLOAT"}}}, {"name": "StatefulPartitionedCall/inception_v3/conv2d_147/Conv2D_bn_offset", "op": "Const", "attr": {"value": {"tensor": {"dtype": "DT_FLOAT", "tensorShape": {"dim": [{"size": "192"}]}}}, "dtype": {"type": "DT_FLOAT"}}}, {"name": "StatefulPartitionedCall/inception_v3/conv2d_172/Conv2D_bn_offset", "op": "Const", "attr": {"dtype": {"type": "DT_FLOAT"}, "value": {"tensor": {"dtype": "DT_FLOAT", "tensorShape": {"dim": [{"size": "384"}]}}}}}, {"name": "StatefulPartitionedCall/inception_v3/conv2d_150/Conv2D_weights", "op": "Const", "attr": {"dtype": {"type": "DT_FLOAT"}, "value": {"tensor": {"dtype": "DT_FLOAT", "tensorShape": {"dim": [{"size": "1"}, {"size": "7"}, {"size": "160"}, {"size": "160"}]}}}}}, {"name": "StatefulPartitionedCall/inception_v3/conv2d_150/Conv2D_bn_offset", "op": "Const", "attr": {"value": {"tensor": {"dtype": "DT_FLOAT", "tensorShape": {"dim": [{"size": "160"}]}}}, "dtype": {"type": "DT_FLOAT"}}}, {"name": "StatefulPartitionedCall/inception_v3/conv2d_151/Conv2D_weights", "op": "Const", "attr": {"dtype": {"type": "DT_FLOAT"}, "value": {"tensor": {"dtype": "DT_FLOAT", "tensorShape": {"dim": [{"size": "7"}, {"size": "1"}, {"size": "160"}, {"size": "160"}]}}}}}, {"name": "StatefulPartitionedCall/inception_v3/conv2d_173/Conv2D_weights", "op": "Const", "attr": {"value": {"tensor": {"dtype": "DT_FLOAT", "tensorShape": {"dim": [{"size": "3"}, {"size": "1"}, {"size": "384"}, {"size": "384"}]}}}, "dtype": {"type": "DT_FLOAT"}}}, {"name": "StatefulPartitionedCall/inception_v3/conv2d_151/Conv2D_bn_offset", "op": "Const", "attr": {"value": {"tensor": {"dtype": "DT_FLOAT", "tensorShape": {"dim": [{"size": "160"}]}}}, "dtype": {"type": "DT_FLOAT"}}}, {"name": "StatefulPartitionedCall/inception_v3/activation_94/Relu", "op": "_FusedConv2D", "input": ["input_2", "StatefulPartitionedCall/inception_v3/conv2d_94/Conv2D_weights", "StatefulPartitionedCall/inception_v3/conv2d_94/Conv2D_bn_offset"], "device": "/device:CPU:0", "attr": {"strides": {"list": {"i": ["1", "2", "2", "1"]}}, "epsilon": {"f": 0.0}, "leakyrelu_alpha": {"f": 0.2}, "explicit_paddings": {"list": {}}, "data_format": {"s": "TkhXQw=="}, "use_cudnn_on_gpu": {"b": true}, "num_host_args": {"i": "0"}, "num_args": {"i": "1"}, "filter_format": {"s": "SFdJTw=="}, "TArgs": {"list": {"type": ["DT_FLOAT"]}}, "padding": {"s": "VkFMSUQ="}, "fused_ops": {"list": {"s": ["Qmlhc0FkZA==", "UmVsdQ=="]}}, "T": {"type": "DT_FLOAT"}, "dilations": {"list": {"i": ["1", "1", "1", "1"]}}}}, {"name": "StatefulPartitionedCall/inception_v3/activation_95/Relu", "op": "_FusedConv2D", "input": ["StatefulPartitionedCall/inception_v3/activation_94/Relu", "StatefulPartitionedCall/inception_v3/conv2d_95/Conv2D_weights", "StatefulPartitionedCall/inception_v3/conv2d_95/Conv2D_bn_offset"], "device": "/device:CPU:0", "attr": {"leakyrelu_alpha": {"f": 0.2}, "TArgs": {"list": {"type": ["DT_FLOAT"]}}, "fused_ops": {"list": {"s": ["Qmlhc0FkZA==", "UmVsdQ=="]}}, "filter_format": {"s": "SFdJTw=="}, "data_format": {"s": "TkhXQw=="}, "num_args": {"i": "1"}, "epsilon": {"f": 0.0}, "strides": {"list": {"i": ["1", "1", "1", "1"]}}, "use_cudnn_on_gpu": {"b": true}, "T": {"type": "DT_FLOAT"}, "explicit_paddings": {"list": {}}, "dilations": {"list": {"i": ["1", "1", "1", "1"]}}, "padding": {"s": "VkFMSUQ="}, "num_host_args": {"i": "0"}}}, {"name": "StatefulPartitionedCall/inception_v3/activation_96/Relu", "op": "_FusedConv2D", "input": ["StatefulPartitionedCall/inception_v3/activation_95/Relu", "StatefulPartitionedCall/inception_v3/conv2d_96/Conv2D_weights", "StatefulPartitionedCall/inception_v3/conv2d_96/Conv2D_bn_offset"], "device": "/device:CPU:0", "attr": {"TArgs": {"list": {"type": ["DT_FLOAT"]}}, "fused_ops": {"list": {"s": ["Qmlhc0FkZA==", "UmVsdQ=="]}}, "strides": {"list": {"i": ["1", "1", "1", "1"]}}, "explicit_paddings": {"list": {}}, "epsilon": {"f": 0.0}, "num_args": {"i": "1"}, "T": {"type": "DT_FLOAT"}, "filter_format": {"s": "SFdJTw=="}, "num_host_args": {"i": "0"}, "leakyrelu_alpha": {"f": 0.2}, "data_format": {"s": "TkhXQw=="}, "dilations": {"list": {"i": ["1", "1", "1", "1"]}}, "use_cudnn_on_gpu": {"b": true}, "padding": {"s": "U0FNRQ=="}}}, {"name": "StatefulPartitionedCall/inception_v3/max_pooling2d_4/MaxPool", "op": "MaxPool", "input": ["StatefulPartitionedCall/inception_v3/activation_96/Relu"], "attr": {"strides": {"list": {"i": ["1", "2", "2", "1"]}}, "ksize": {"list": {"i": ["1", "3", "3", "1"]}}, "padding": {"s": "VkFMSUQ="}, "explicit_paddings": {"list": {}}, "T": {"type": "DT_FLOAT"}, "data_format": {"s": "TkhXQw=="}}}, {"name": "StatefulPartitionedCall/inception_v3/activation_97/Relu", "op": "_FusedConv2D", "input": ["StatefulPartitionedCall/inception_v3/max_pooling2d_4/MaxPool", "StatefulPartitionedCall/inception_v3/conv2d_97/Conv2D_weights", "StatefulPartitionedCall/inception_v3/conv2d_97/Conv2D_bn_offset"], "device": "/device:CPU:0", "attr": {"fused_ops": {"list": {"s": ["Qmlhc0FkZA==", "UmVsdQ=="]}}, "use_cudnn_on_gpu": {"b": true}, "T": {"type": "DT_FLOAT"}, "TArgs": {"list": {"type": ["DT_FLOAT"]}}, "num_host_args": {"i": "0"}, "strides": {"list": {"i": ["1", "1", "1", "1"]}}, "padding": {"s": "VkFMSUQ="}, "epsilon": {"f": 0.0}, "dilations": {"list": {"i": ["1", "1", "1", "1"]}}, "explicit_paddings": {"list": {}}, "num_args": {"i": "1"}, "data_format": {"s": "TkhXQw=="}, "leakyrelu_alpha": {"f": 0.2}, "filter_format": {"s": "SFdJTw=="}}}, {"name": "StatefulPartitionedCall/inception_v3/activation_98/Relu", "op": "_FusedConv2D", "input": ["StatefulPartitionedCall/inception_v3/activation_97/Relu", "StatefulPartitionedCall/inception_v3/conv2d_98/Conv2D_weights", "StatefulPartitionedCall/inception_v3/conv2d_98/Conv2D_bn_offset"], "device": "/device:CPU:0", "attr": {"num_host_args": {"i": "0"}, "use_cudnn_on_gpu": {"b": true}, "strides": {"list": {"i": ["1", "1", "1", "1"]}}, "leakyrelu_alpha": {"f": 0.2}, "dilations": {"list": {"i": ["1", "1", "1", "1"]}}, "fused_ops": {"list": {"s": ["Qmlhc0FkZA==", "UmVsdQ=="]}}, "epsilon": {"f": 0.0}, "T": {"type": "DT_FLOAT"}, "explicit_paddings": {"list": {}}, "filter_format": {"s": "SFdJTw=="}, "data_format": {"s": "TkhXQw=="}, "padding": {"s": "VkFMSUQ="}, "TArgs": {"list": {"type": ["DT_FLOAT"]}}, "num_args": {"i": "1"}}}, {"name": "StatefulPartitionedCall/inception_v3/max_pooling2d_5/MaxPool", "op": "MaxPool", "input": ["StatefulPartitionedCall/inception_v3/activation_98/Relu"], "attr": {"strides": {"list": {"i": ["1", "2", "2", "1"]}}, "explicit_paddings": {"list": {}}, "ksize": {"list": {"i": ["1", "3", "3", "1"]}}, "padding": {"s": "VkFMSUQ="}, "data_format": {"s": "TkhXQw=="}, "T": {"type": "DT_FLOAT"}}}, {"name": "StatefulPartitionedCall/inception_v3/average_pooling2d_9/AvgPool", "op": "AvgPool", "input": ["StatefulPartitionedCall/inception_v3/max_pooling2d_5/MaxPool"], "attr": {"data_format": {"s": "TkhXQw=="}, "padding": {"s": "U0FNRQ=="}, "T": {"type": "DT_FLOAT"}, "ksize": {"list": {"i": ["1", "3", "3", "1"]}}, "strides": {"list": {"i": ["1", "1", "1", "1"]}}}}, {"name": "StatefulPartitionedCall/inception_v3/activation_99/Relu", "op": "_FusedConv2D", "input": ["StatefulPartitionedCall/inception_v3/max_pooling2d_5/MaxPool", "StatefulPartitionedCall/inception_v3/conv2d_99/Conv2D_weights", "StatefulPartitionedCall/inception_v3/conv2d_99/Conv2D_bn_offset"], "device": "/device:CPU:0", "attr": {"dilations": {"list": {"i": ["1", "1", "1", "1"]}}, "fused_ops": {"list": {"s": ["Qmlhc0FkZA==", "UmVsdQ=="]}}, "leakyrelu_alpha": {"f": 0.2}, "T": {"type": "DT_FLOAT"}, "strides": {"list": {"i": ["1", "1", "1", "1"]}}, "padding": {"s": "U0FNRQ=="}, "epsilon": {"f": 0.0}, "TArgs": {"list": {"type": ["DT_FLOAT"]}}, "data_format": {"s": "TkhXQw=="}, "filter_format": {"s": "SFdJTw=="}, "use_cudnn_on_gpu": {"b": true}, "explicit_paddings": {"list": {}}, "num_host_args": {"i": "0"}, "num_args": {"i": "1"}}}, {"name": "StatefulPartitionedCall/inception_v3/activation_100/Relu", "op": "_FusedConv2D", "input": ["StatefulPartitionedCall/inception_v3/max_pooling2d_5/MaxPool", "StatefulPartitionedCall/inception_v3/conv2d_100/Conv2D_weights", "StatefulPartitionedCall/inception_v3/conv2d_100/Conv2D_bn_offset"], "device": "/device:CPU:0", "attr": {"num_host_args": {"i": "0"}, "filter_format": {"s": "SFdJTw=="}, "explicit_paddings": {"list": {}}, "leakyrelu_alpha": {"f": 0.2}, "T": {"type": "DT_FLOAT"}, "epsilon": {"f": 0.0}, "dilations": {"list": {"i": ["1", "1", "1", "1"]}}, "use_cudnn_on_gpu": {"b": true}, "TArgs": {"list": {"type": ["DT_FLOAT"]}}, "data_format": {"s": "TkhXQw=="}, "strides": {"list": {"i": ["1", "1", "1", "1"]}}, "padding": {"s": "U0FNRQ=="}, "fused_ops": {"list": {"s": ["Qmlhc0FkZA==", "UmVsdQ=="]}}, "num_args": {"i": "1"}}}, {"name": "StatefulPartitionedCall/inception_v3/activation_102/Relu", "op": "_FusedConv2D", "input": ["StatefulPartitionedCall/inception_v3/max_pooling2d_5/MaxPool", "StatefulPartitionedCall/inception_v3/conv2d_102/Conv2D_weights", "StatefulPartitionedCall/inception_v3/conv2d_102/Conv2D_bn_offset"], "device": "/device:CPU:0", "attr": {"T": {"type": "DT_FLOAT"}, "padding": {"s": "U0FNRQ=="}, "data_format": {"s": "TkhXQw=="}, "leakyrelu_alpha": {"f": 0.2}, "num_host_args": {"i": "0"}, "TArgs": {"list": {"type": ["DT_FLOAT"]}}, "num_args": {"i": "1"}, "fused_ops": {"list": {"s": ["Qmlhc0FkZA==", "UmVsdQ=="]}}, "epsilon": {"f": 0.0}, "filter_format": {"s": "SFdJTw=="}, "use_cudnn_on_gpu": {"b": true}, "dilations": {"list": {"i": ["1", "1", "1", "1"]}}, "explicit_paddings": {"list": {}}, "strides": {"list": {"i": ["1", "1", "1", "1"]}}}}, {"name": "StatefulPartitionedCall/inception_v3/activation_105/Relu", "op": "_FusedConv2D", "input": ["StatefulPartitionedCall/inception_v3/average_pooling2d_9/AvgPool", "StatefulPartitionedCall/inception_v3/conv2d_105/Conv2D_weights", "StatefulPartitionedCall/inception_v3/conv2d_105/Conv2D_bn_offset"], "device": "/device:CPU:0", "attr": {"dilations": {"list": {"i": ["1", "1", "1", "1"]}}, "num_args": {"i": "1"}, "epsilon": {"f": 0.0}, "T": {"type": "DT_FLOAT"}, "padding": {"s": "U0FNRQ=="}, "TArgs": {"list": {"type": ["DT_FLOAT"]}}, "filter_format": {"s": "SFdJTw=="}, "fused_ops": {"list": {"s": ["Qmlhc0FkZA==", "UmVsdQ=="]}}, "num_host_args": {"i": "0"}, "leakyrelu_alpha": {"f": 0.2}, "use_cudnn_on_gpu": {"b": true}, "strides": {"list": {"i": ["1", "1", "1", "1"]}}, "explicit_paddings": {"list": {}}, "data_format": {"s": "TkhXQw=="}}}, {"name": "StatefulPartitionedCall/inception_v3/activation_101/Relu", "op": "_FusedConv2D", "input": ["StatefulPartitionedCall/inception_v3/activation_100/Relu", "StatefulPartitionedCall/inception_v3/conv2d_101/Conv2D_weights", "StatefulPartitionedCall/inception_v3/conv2d_101/Conv2D_bn_offset"], "device": "/device:CPU:0", "attr": {"data_format": {"s": "TkhXQw=="}, "padding": {"s": "U0FNRQ=="}, "explicit_paddings": {"list": {}}, "TArgs": {"list": {"type": ["DT_FLOAT"]}}, "num_host_args": {"i": "0"}, "epsilon": {"f": 0.0}, "num_args": {"i": "1"}, "filter_format": {"s": "SFdJTw=="}, "leakyrelu_alpha": {"f": 0.2}, "use_cudnn_on_gpu": {"b": true}, "fused_ops": {"list": {"s": ["Qmlhc0FkZA==", "UmVsdQ=="]}}, "T": {"type": "DT_FLOAT"}, "dilations": {"list": {"i": ["1", "1", "1", "1"]}}, "strides": {"list": {"i": ["1", "1", "1", "1"]}}}}, {"name": "StatefulPartitionedCall/inception_v3/activation_103/Relu", "op": "_FusedConv2D", "input": ["StatefulPartitionedCall/inception_v3/activation_102/Relu", "StatefulPartitionedCall/inception_v3/conv2d_103/Conv2D_weights", "StatefulPartitionedCall/inception_v3/conv2d_103/Conv2D_bn_offset"], "device": "/device:CPU:0", "attr": {"fused_ops": {"list": {"s": ["Qmlhc0FkZA==", "UmVsdQ=="]}}, "leakyrelu_alpha": {"f": 0.2}, "filter_format": {"s": "SFdJTw=="}, "num_host_args": {"i": "0"}, "padding": {"s": "U0FNRQ=="}, "num_args": {"i": "1"}, "T": {"type": "DT_FLOAT"}, "dilations": {"list": {"i": ["1", "1", "1", "1"]}}, "epsilon": {"f": 0.0}, "strides": {"list": {"i": ["1", "1", "1", "1"]}}, "use_cudnn_on_gpu": {"b": true}, "explicit_paddings": {"list": {}}, "data_format": {"s": "TkhXQw=="}, "TArgs": {"list": {"type": ["DT_FLOAT"]}}}}, {"name": "StatefulPartitionedCall/inception_v3/activation_104/Relu", "op": "_FusedConv2D", "input": ["StatefulPartitionedCall/inception_v3/activation_103/Relu", "StatefulPartitionedCall/inception_v3/conv2d_104/Conv2D_weights", "StatefulPartitionedCall/inception_v3/conv2d_104/Conv2D_bn_offset"], "device": "/device:CPU:0", "attr": {"epsilon": {"f": 0.0}, "strides": {"list": {"i": ["1", "1", "1", "1"]}}, "fused_ops": {"list": {"s": ["Qmlhc0FkZA==", "UmVsdQ=="]}}, "padding": {"s": "U0FNRQ=="}, "data_format": {"s": "TkhXQw=="}, "num_args": {"i": "1"}, "filter_format": {"s": "SFdJTw=="}, "dilations": {"list": {"i": ["1", "1", "1", "1"]}}, "leakyrelu_alpha": {"f": 0.2}, "num_host_args": {"i": "0"}, "use_cudnn_on_gpu": {"b": true}, "TArgs": {"list": {"type": ["DT_FLOAT"]}}, "T": {"type": "DT_FLOAT"}, "explicit_paddings": {"list": {}}}}, {"name": "StatefulPartitionedCall/inception_v3/mixed0/concat", "op": "ConcatV2", "input": ["StatefulPartitionedCall/inception_v3/activation_99/Relu", "StatefulPartitionedCall/inception_v3/activation_101/Relu", "StatefulPartitionedCall/inception_v3/activation_104/Relu", "StatefulPartitionedCall/inception_v3/activation_105/Relu", "StatefulPartitionedCall/inception_v3/mixed0/concat/axis"], "attr": {"N": {"i": "4"}, "Tidx": {"type": "DT_INT32"}, "T": {"type": "DT_FLOAT"}}}, {"name": "StatefulPartitionedCall/inception_v3/average_pooling2d_10/AvgPool", "op": "AvgPool", "input": ["StatefulPartitionedCall/inception_v3/mixed0/concat"], "attr": {"ksize": {"list": {"i": ["1", "3", "3", "1"]}}, "data_format": {"s": "TkhXQw=="}, "T": {"type": "DT_FLOAT"}, "strides": {"list": {"i": ["1", "1", "1", "1"]}}, "padding": {"s": "U0FNRQ=="}}}, {"name": "StatefulPartitionedCall/inception_v3/activation_106/Relu", "op": "_FusedConv2D", "input": ["StatefulPartitionedCall/inception_v3/mixed0/concat", "StatefulPartitionedCall/inception_v3/conv2d_106/Conv2D_weights", "StatefulPartitionedCall/inception_v3/conv2d_106/Conv2D_bn_offset"], "device": "/device:CPU:0", "attr": {"data_format": {"s": "TkhXQw=="}, "num_host_args": {"i": "0"}, "dilations": {"list": {"i": ["1", "1", "1", "1"]}}, "strides": {"list": {"i": ["1", "1", "1", "1"]}}, "T": {"type": "DT_FLOAT"}, "use_cudnn_on_gpu": {"b": true}, "num_args": {"i": "1"}, "filter_format": {"s": "SFdJTw=="}, "TArgs": {"list": {"type": ["DT_FLOAT"]}}, "leakyrelu_alpha": {"f": 0.2}, "explicit_paddings": {"list": {}}, "fused_ops": {"list": {"s": ["Qmlhc0FkZA==", "UmVsdQ=="]}}, "epsilon": {"f": 0.0}, "padding": {"s": "U0FNRQ=="}}}, {"name": "StatefulPartitionedCall/inception_v3/activation_107/Relu", "op": "_FusedConv2D", "input": ["StatefulPartitionedCall/inception_v3/mixed0/concat", "StatefulPartitionedCall/inception_v3/conv2d_107/Conv2D_weights", "StatefulPartitionedCall/inception_v3/conv2d_107/Conv2D_bn_offset"], "device": "/device:CPU:0", "attr": {"dilations": {"list": {"i": ["1", "1", "1", "1"]}}, "TArgs": {"list": {"type": ["DT_FLOAT"]}}, "data_format": {"s": "TkhXQw=="}, "filter_format": {"s": "SFdJTw=="}, "num_host_args": {"i": "0"}, "T": {"type": "DT_FLOAT"}, "use_cudnn_on_gpu": {"b": true}, "strides": {"list": {"i": ["1", "1", "1", "1"]}}, "leakyrelu_alpha": {"f": 0.2}, "num_args": {"i": "1"}, "fused_ops": {"list": {"s": ["Qmlhc0FkZA==", "UmVsdQ=="]}}, "padding": {"s": "U0FNRQ=="}, "explicit_paddings": {"list": {}}, "epsilon": {"f": 0.0}}}, {"name": "StatefulPartitionedCall/inception_v3/activation_109/Relu", "op": "_FusedConv2D", "input": ["StatefulPartitionedCall/inception_v3/mixed0/concat", "StatefulPartitionedCall/inception_v3/conv2d_109/Conv2D_weights", "StatefulPartitionedCall/inception_v3/conv2d_109/Conv2D_bn_offset"], "device": "/device:CPU:0", "attr": {"TArgs": {"list": {"type": ["DT_FLOAT"]}}, "use_cudnn_on_gpu": {"b": true}, "dilations": {"list": {"i": ["1", "1", "1", "1"]}}, "num_host_args": {"i": "0"}, "data_format": {"s": "TkhXQw=="}, "num_args": {"i": "1"}, "fused_ops": {"list": {"s": ["Qmlhc0FkZA==", "UmVsdQ=="]}}, "padding": {"s": "U0FNRQ=="}, "explicit_paddings": {"list": {}}, "filter_format": {"s": "SFdJTw=="}, "leakyrelu_alpha": {"f": 0.2}, "strides": {"list": {"i": ["1", "1", "1", "1"]}}, "T": {"type": "DT_FLOAT"}, "epsilon": {"f": 0.0}}}, {"name": "StatefulPartitionedCall/inception_v3/activation_112/Relu", "op": "_FusedConv2D", "input": ["StatefulPartitionedCall/inception_v3/average_pooling2d_10/AvgPool", "StatefulPartitionedCall/inception_v3/conv2d_112/Conv2D_weights", "StatefulPartitionedCall/inception_v3/conv2d_112/Conv2D_bn_offset"], "device": "/device:CPU:0", "attr": {"dilations": {"list": {"i": ["1", "1", "1", "1"]}}, "explicit_paddings": {"list": {}}, "strides": {"list": {"i": ["1", "1", "1", "1"]}}, "fused_ops": {"list": {"s": ["Qmlhc0FkZA==", "UmVsdQ=="]}}, "TArgs": {"list": {"type": ["DT_FLOAT"]}}, "leakyrelu_alpha": {"f": 0.2}, "num_host_args": {"i": "0"}, "T": {"type": "DT_FLOAT"}, "data_format": {"s": "TkhXQw=="}, "filter_format": {"s": "SFdJTw=="}, "epsilon": {"f": 0.0}, "num_args": {"i": "1"}, "use_cudnn_on_gpu": {"b": true}, "padding": {"s": "U0FNRQ=="}}}, {"name": "StatefulPartitionedCall/inception_v3/activation_108/Relu", "op": "_FusedConv2D", "input": ["StatefulPartitionedCall/inception_v3/activation_107/Relu", "StatefulPartitionedCall/inception_v3/conv2d_108/Conv2D_weights", "StatefulPartitionedCall/inception_v3/conv2d_108/Conv2D_bn_offset"], "device": "/device:CPU:0", "attr": {"explicit_paddings": {"list": {}}, "fused_ops": {"list": {"s": ["Qmlhc0FkZA==", "UmVsdQ=="]}}, "leakyrelu_alpha": {"f": 0.2}, "data_format": {"s": "TkhXQw=="}, "filter_format": {"s": "SFdJTw=="}, "T": {"type": "DT_FLOAT"}, "dilations": {"list": {"i": ["1", "1", "1", "1"]}}, "strides": {"list": {"i": ["1", "1", "1", "1"]}}, "use_cudnn_on_gpu": {"b": true}, "epsilon": {"f": 0.0}, "padding": {"s": "U0FNRQ=="}, "num_args": {"i": "1"}, "num_host_args": {"i": "0"}, "TArgs": {"list": {"type": ["DT_FLOAT"]}}}}, {"name": "StatefulPartitionedCall/inception_v3/activation_110/Relu", "op": "_FusedConv2D", "input": ["StatefulPartitionedCall/inception_v3/activation_109/Relu", "StatefulPartitionedCall/inception_v3/conv2d_110/Conv2D_weights", "StatefulPartitionedCall/inception_v3/conv2d_110/Conv2D_bn_offset"], "device": "/device:CPU:0", "attr": {"num_args": {"i": "1"}, "leakyrelu_alpha": {"f": 0.2}, "strides": {"list": {"i": ["1", "1", "1", "1"]}}, "fused_ops": {"list": {"s": ["Qmlhc0FkZA==", "UmVsdQ=="]}}, "TArgs": {"list": {"type": ["DT_FLOAT"]}}, "filter_format": {"s": "SFdJTw=="}, "explicit_paddings": {"list": {}}, "epsilon": {"f": 0.0}, "T": {"type": "DT_FLOAT"}, "dilations": {"list": {"i": ["1", "1", "1", "1"]}}, "data_format": {"s": "TkhXQw=="}, "num_host_args": {"i": "0"}, "use_cudnn_on_gpu": {"b": true}, "padding": {"s": "U0FNRQ=="}}}, {"name": "StatefulPartitionedCall/inception_v3/activation_111/Relu", "op": "_FusedConv2D", "input": ["StatefulPartitionedCall/inception_v3/activation_110/Relu", "StatefulPartitionedCall/inception_v3/conv2d_111/Conv2D_weights", "StatefulPartitionedCall/inception_v3/conv2d_111/Conv2D_bn_offset"], "device": "/device:CPU:0", "attr": {"explicit_paddings": {"list": {}}, "padding": {"s": "U0FNRQ=="}, "epsilon": {"f": 0.0}, "leakyrelu_alpha": {"f": 0.2}, "data_format": {"s": "TkhXQw=="}, "num_args": {"i": "1"}, "use_cudnn_on_gpu": {"b": true}, "filter_format": {"s": "SFdJTw=="}, "T": {"type": "DT_FLOAT"}, "dilations": {"list": {"i": ["1", "1", "1", "1"]}}, "TArgs": {"list": {"type": ["DT_FLOAT"]}}, "num_host_args": {"i": "0"}, "fused_ops": {"list": {"s": ["Qmlhc0FkZA==", "UmVsdQ=="]}}, "strides": {"list": {"i": ["1", "1", "1", "1"]}}}}, {"name": "StatefulPartitionedCall/inception_v3/mixed1/concat", "op": "ConcatV2", "input": ["StatefulPartitionedCall/inception_v3/activation_106/Relu", "StatefulPartitionedCall/inception_v3/activation_108/Relu", "StatefulPartitionedCall/inception_v3/activation_111/Relu", "StatefulPartitionedCall/inception_v3/activation_112/Relu", "StatefulPartitionedCall/inception_v3/mixed1/concat/axis"], "attr": {"Tidx": {"type": "DT_INT32"}, "T": {"type": "DT_FLOAT"}, "N": {"i": "4"}}}, {"name": "StatefulPartitionedCall/inception_v3/average_pooling2d_11/AvgPool", "op": "AvgPool", "input": ["StatefulPartitionedCall/inception_v3/mixed1/concat"], "attr": {"T": {"type": "DT_FLOAT"}, "padding": {"s": "U0FNRQ=="}, "strides": {"list": {"i": ["1", "1", "1", "1"]}}, "data_format": {"s": "TkhXQw=="}, "ksize": {"list": {"i": ["1", "3", "3", "1"]}}}}, {"name": "StatefulPartitionedCall/inception_v3/activation_113/Relu", "op": "_FusedConv2D", "input": ["StatefulPartitionedCall/inception_v3/mixed1/concat", "StatefulPartitionedCall/inception_v3/conv2d_113/Conv2D_weights", "StatefulPartitionedCall/inception_v3/conv2d_113/Conv2D_bn_offset"], "device": "/device:CPU:0", "attr": {"num_args": {"i": "1"}, "dilations": {"list": {"i": ["1", "1", "1", "1"]}}, "padding": {"s": "U0FNRQ=="}, "fused_ops": {"list": {"s": ["Qmlhc0FkZA==", "UmVsdQ=="]}}, "strides": {"list": {"i": ["1", "1", "1", "1"]}}, "TArgs": {"list": {"type": ["DT_FLOAT"]}}, "use_cudnn_on_gpu": {"b": true}, "T": {"type": "DT_FLOAT"}, "leakyrelu_alpha": {"f": 0.2}, "num_host_args": {"i": "0"}, "epsilon": {"f": 0.0}, "explicit_paddings": {"list": {}}, "data_format": {"s": "TkhXQw=="}, "filter_format": {"s": "SFdJTw=="}}}, {"name": "StatefulPartitionedCall/inception_v3/activation_114/Relu", "op": "_FusedConv2D", "input": ["StatefulPartitionedCall/inception_v3/mixed1/concat", "StatefulPartitionedCall/inception_v3/conv2d_114/Conv2D_weights", "StatefulPartitionedCall/inception_v3/conv2d_114/Conv2D_bn_offset"], "device": "/device:CPU:0", "attr": {"num_args": {"i": "1"}, "explicit_paddings": {"list": {}}, "strides": {"list": {"i": ["1", "1", "1", "1"]}}, "use_cudnn_on_gpu": {"b": true}, "filter_format": {"s": "SFdJTw=="}, "fused_ops": {"list": {"s": ["Qmlhc0FkZA==", "UmVsdQ=="]}}, "leakyrelu_alpha": {"f": 0.2}, "T": {"type": "DT_FLOAT"}, "padding": {"s": "U0FNRQ=="}, "TArgs": {"list": {"type": ["DT_FLOAT"]}}, "epsilon": {"f": 0.0}, "dilations": {"list": {"i": ["1", "1", "1", "1"]}}, "data_format": {"s": "TkhXQw=="}, "num_host_args": {"i": "0"}}}, {"name": "StatefulPartitionedCall/inception_v3/activation_116/Relu", "op": "_FusedConv2D", "input": ["StatefulPartitionedCall/inception_v3/mixed1/concat", "StatefulPartitionedCall/inception_v3/conv2d_116/Conv2D_weights", "StatefulPartitionedCall/inception_v3/conv2d_116/Conv2D_bn_offset"], "device": "/device:CPU:0", "attr": {"epsilon": {"f": 0.0}, "dilations": {"list": {"i": ["1", "1", "1", "1"]}}, "fused_ops": {"list": {"s": ["Qmlhc0FkZA==", "UmVsdQ=="]}}, "num_args": {"i": "1"}, "strides": {"list": {"i": ["1", "1", "1", "1"]}}, "padding": {"s": "U0FNRQ=="}, "use_cudnn_on_gpu": {"b": true}, "TArgs": {"list": {"type": ["DT_FLOAT"]}}, "T": {"type": "DT_FLOAT"}, "data_format": {"s": "TkhXQw=="}, "num_host_args": {"i": "0"}, "filter_format": {"s": "SFdJTw=="}, "explicit_paddings": {"list": {}}, "leakyrelu_alpha": {"f": 0.2}}}, {"name": "StatefulPartitionedCall/inception_v3/activation_119/Relu", "op": "_FusedConv2D", "input": ["StatefulPartitionedCall/inception_v3/average_pooling2d_11/AvgPool", "StatefulPartitionedCall/inception_v3/conv2d_119/Conv2D_weights", "StatefulPartitionedCall/inception_v3/conv2d_119/Conv2D_bn_offset"], "device": "/device:CPU:0", "attr": {"T": {"type": "DT_FLOAT"}, "fused_ops": {"list": {"s": ["Qmlhc0FkZA==", "UmVsdQ=="]}}, "padding": {"s": "U0FNRQ=="}, "use_cudnn_on_gpu": {"b": true}, "filter_format": {"s": "SFdJTw=="}, "dilations": {"list": {"i": ["1", "1", "1", "1"]}}, "num_args": {"i": "1"}, "TArgs": {"list": {"type": ["DT_FLOAT"]}}, "epsilon": {"f": 0.0}, "data_format": {"s": "TkhXQw=="}, "leakyrelu_alpha": {"f": 0.2}, "strides": {"list": {"i": ["1", "1", "1", "1"]}}, "explicit_paddings": {"list": {}}, "num_host_args": {"i": "0"}}}, {"name": "StatefulPartitionedCall/inception_v3/activation_115/Relu", "op": "_FusedConv2D", "input": ["StatefulPartitionedCall/inception_v3/activation_114/Relu", "StatefulPartitionedCall/inception_v3/conv2d_115/Conv2D_weights", "StatefulPartitionedCall/inception_v3/conv2d_115/Conv2D_bn_offset"], "device": "/device:CPU:0", "attr": {"strides": {"list": {"i": ["1", "1", "1", "1"]}}, "T": {"type": "DT_FLOAT"}, "padding": {"s": "U0FNRQ=="}, "use_cudnn_on_gpu": {"b": true}, "num_args": {"i": "1"}, "dilations": {"list": {"i": ["1", "1", "1", "1"]}}, "TArgs": {"list": {"type": ["DT_FLOAT"]}}, "data_format": {"s": "TkhXQw=="}, "explicit_paddings": {"list": {}}, "fused_ops": {"list": {"s": ["Qmlhc0FkZA==", "UmVsdQ=="]}}, "epsilon": {"f": 0.0}, "num_host_args": {"i": "0"}, "filter_format": {"s": "SFdJTw=="}, "leakyrelu_alpha": {"f": 0.2}}}, {"name": "StatefulPartitionedCall/inception_v3/activation_117/Relu", "op": "_FusedConv2D", "input": ["StatefulPartitionedCall/inception_v3/activation_116/Relu", "StatefulPartitionedCall/inception_v3/conv2d_117/Conv2D_weights", "StatefulPartitionedCall/inception_v3/conv2d_117/Conv2D_bn_offset"], "device": "/device:CPU:0", "attr": {"T": {"type": "DT_FLOAT"}, "TArgs": {"list": {"type": ["DT_FLOAT"]}}, "num_args": {"i": "1"}, "strides": {"list": {"i": ["1", "1", "1", "1"]}}, "epsilon": {"f": 0.0}, "explicit_paddings": {"list": {}}, "padding": {"s": "U0FNRQ=="}, "use_cudnn_on_gpu": {"b": true}, "filter_format": {"s": "SFdJTw=="}, "dilations": {"list": {"i": ["1", "1", "1", "1"]}}, "fused_ops": {"list": {"s": ["Qmlhc0FkZA==", "UmVsdQ=="]}}, "leakyrelu_alpha": {"f": 0.2}, "data_format": {"s": "TkhXQw=="}, "num_host_args": {"i": "0"}}}, {"name": "StatefulPartitionedCall/inception_v3/activation_118/Relu", "op": "_FusedConv2D", "input": ["StatefulPartitionedCall/inception_v3/activation_117/Relu", "StatefulPartitionedCall/inception_v3/conv2d_118/Conv2D_weights", "StatefulPartitionedCall/inception_v3/conv2d_118/Conv2D_bn_offset"], "device": "/device:CPU:0", "attr": {"T": {"type": "DT_FLOAT"}, "padding": {"s": "U0FNRQ=="}, "explicit_paddings": {"list": {}}, "fused_ops": {"list": {"s": ["Qmlhc0FkZA==", "UmVsdQ=="]}}, "use_cudnn_on_gpu": {"b": true}, "TArgs": {"list": {"type": ["DT_FLOAT"]}}, "filter_format": {"s": "SFdJTw=="}, "strides": {"list": {"i": ["1", "1", "1", "1"]}}, "dilations": {"list": {"i": ["1", "1", "1", "1"]}}, "data_format": {"s": "TkhXQw=="}, "num_args": {"i": "1"}, "num_host_args": {"i": "0"}, "epsilon": {"f": 0.0}, "leakyrelu_alpha": {"f": 0.2}}}, {"name": "StatefulPartitionedCall/inception_v3/mixed2/concat", "op": "ConcatV2", "input": ["StatefulPartitionedCall/inception_v3/activation_113/Relu", "StatefulPartitionedCall/inception_v3/activation_115/Relu", "StatefulPartitionedCall/inception_v3/activation_118/Relu", "StatefulPartitionedCall/inception_v3/activation_119/Relu", "StatefulPartitionedCall/inception_v3/mixed2/concat/axis"], "attr": {"N": {"i": "4"}, "T": {"type": "DT_FLOAT"}, "Tidx": {"type": "DT_INT32"}}}, {"name": "StatefulPartitionedCall/inception_v3/max_pooling2d_6/MaxPool", "op": "MaxPool", "input": ["StatefulPartitionedCall/inception_v3/mixed2/concat"], "attr": {"ksize": {"list": {"i": ["1", "3", "3", "1"]}}, "T": {"type": "DT_FLOAT"}, "padding": {"s": "VkFMSUQ="}, "explicit_paddings": {"list": {}}, "data_format": {"s": "TkhXQw=="}, "strides": {"list": {"i": ["1", "2", "2", "1"]}}}}, {"name": "StatefulPartitionedCall/inception_v3/activation_120/Relu", "op": "_FusedConv2D", "input": ["StatefulPartitionedCall/inception_v3/mixed2/concat", "StatefulPartitionedCall/inception_v3/conv2d_120/Conv2D_weights", "StatefulPartitionedCall/inception_v3/conv2d_120/Conv2D_bn_offset"], "device": "/device:CPU:0", "attr": {"data_format": {"s": "TkhXQw=="}, "use_cudnn_on_gpu": {"b": true}, "epsilon": {"f": 0.0}, "explicit_paddings": {"list": {}}, "fused_ops": {"list": {"s": ["Qmlhc0FkZA==", "UmVsdQ=="]}}, "dilations": {"list": {"i": ["1", "1", "1", "1"]}}, "leakyrelu_alpha": {"f": 0.2}, "TArgs": {"list": {"type": ["DT_FLOAT"]}}, "num_args": {"i": "1"}, "strides": {"list": {"i": ["1", "2", "2", "1"]}}, "filter_format": {"s": "SFdJTw=="}, "num_host_args": {"i": "0"}, "padding": {"s": "VkFMSUQ="}, "T": {"type": "DT_FLOAT"}}}, {"name": "StatefulPartitionedCall/inception_v3/activation_121/Relu", "op": "_FusedConv2D", "input": ["StatefulPartitionedCall/inception_v3/mixed2/concat", "StatefulPartitionedCall/inception_v3/conv2d_121/Conv2D_weights", "StatefulPartitionedCall/inception_v3/conv2d_121/Conv2D_bn_offset"], "device": "/device:CPU:0", "attr": {"filter_format": {"s": "SFdJTw=="}, "explicit_paddings": {"list": {}}, "leakyrelu_alpha": {"f": 0.2}, "TArgs": {"list": {"type": ["DT_FLOAT"]}}, "T": {"type": "DT_FLOAT"}, "use_cudnn_on_gpu": {"b": true}, "dilations": {"list": {"i": ["1", "1", "1", "1"]}}, "epsilon": {"f": 0.0}, "padding": {"s": "U0FNRQ=="}, "data_format": {"s": "TkhXQw=="}, "num_args": {"i": "1"}, "fused_ops": {"list": {"s": ["Qmlhc0FkZA==", "UmVsdQ=="]}}, "num_host_args": {"i": "0"}, "strides": {"list": {"i": ["1", "1", "1", "1"]}}}}, {"name": "StatefulPartitionedCall/inception_v3/activation_122/Relu", "op": "_FusedConv2D", "input": ["StatefulPartitionedCall/inception_v3/activation_121/Relu", "StatefulPartitionedCall/inception_v3/conv2d_122/Conv2D_weights", "StatefulPartitionedCall/inception_v3/conv2d_122/Conv2D_bn_offset"], "device": "/device:CPU:0", "attr": {"data_format": {"s": "TkhXQw=="}, "dilations": {"list": {"i": ["1", "1", "1", "1"]}}, "num_args": {"i": "1"}, "epsilon": {"f": 0.0}, "strides": {"list": {"i": ["1", "1", "1", "1"]}}, "padding": {"s": "U0FNRQ=="}, "explicit_paddings": {"list": {}}, "leakyrelu_alpha": {"f": 0.2}, "T": {"type": "DT_FLOAT"}, "fused_ops": {"list": {"s": ["Qmlhc0FkZA==", "UmVsdQ=="]}}, "use_cudnn_on_gpu": {"b": true}, "filter_format": {"s": "SFdJTw=="}, "num_host_args": {"i": "0"}, "TArgs": {"list": {"type": ["DT_FLOAT"]}}}}, {"name": "StatefulPartitionedCall/inception_v3/activation_123/Relu", "op": "_FusedConv2D", "input": ["StatefulPartitionedCall/inception_v3/activation_122/Relu", "StatefulPartitionedCall/inception_v3/conv2d_123/Conv2D_weights", "StatefulPartitionedCall/inception_v3/conv2d_123/Conv2D_bn_offset"], "device": "/device:CPU:0", "attr": {"strides": {"list": {"i": ["1", "2", "2", "1"]}}, "num_host_args": {"i": "0"}, "num_args": {"i": "1"}, "padding": {"s": "VkFMSUQ="}, "TArgs": {"list": {"type": ["DT_FLOAT"]}}, "fused_ops": {"list": {"s": ["Qmlhc0FkZA==", "UmVsdQ=="]}}, "explicit_paddings": {"list": {}}, "use_cudnn_on_gpu": {"b": true}, "T": {"type": "DT_FLOAT"}, "data_format": {"s": "TkhXQw=="}, "leakyrelu_alpha": {"f": 0.2}, "filter_format": {"s": "SFdJTw=="}, "dilations": {"list": {"i": ["1", "1", "1", "1"]}}, "epsilon": {"f": 0.0}}}, {"name": "StatefulPartitionedCall/inception_v3/mixed3/concat", "op": "ConcatV2", "input": ["StatefulPartitionedCall/inception_v3/activation_120/Relu", "StatefulPartitionedCall/inception_v3/activation_123/Relu", "StatefulPartitionedCall/inception_v3/max_pooling2d_6/MaxPool", "StatefulPartitionedCall/inception_v3/mixed3/concat/axis"], "attr": {"T": {"type": "DT_FLOAT"}, "Tidx": {"type": "DT_INT32"}, "N": {"i": "3"}}}, {"name": "StatefulPartitionedCall/inception_v3/average_pooling2d_12/AvgPool", "op": "AvgPool", "input": ["StatefulPartitionedCall/inception_v3/mixed3/concat"], "attr": {"data_format": {"s": "TkhXQw=="}, "T": {"type": "DT_FLOAT"}, "ksize": {"list": {"i": ["1", "3", "3", "1"]}}, "padding": {"s": "U0FNRQ=="}, "strides": {"list": {"i": ["1", "1", "1", "1"]}}}}, {"name": "StatefulPartitionedCall/inception_v3/activation_124/Relu", "op": "_FusedConv2D", "input": ["StatefulPartitionedCall/inception_v3/mixed3/concat", "StatefulPartitionedCall/inception_v3/conv2d_124/Conv2D_weights", "StatefulPartitionedCall/inception_v3/conv2d_124/Conv2D_bn_offset"], "device": "/device:CPU:0", "attr": {"use_cudnn_on_gpu": {"b": true}, "fused_ops": {"list": {"s": ["Qmlhc0FkZA==", "UmVsdQ=="]}}, "dilations": {"list": {"i": ["1", "1", "1", "1"]}}, "data_format": {"s": "TkhXQw=="}, "epsilon": {"f": 0.0}, "TArgs": {"list": {"type": ["DT_FLOAT"]}}, "filter_format": {"s": "SFdJTw=="}, "T": {"type": "DT_FLOAT"}, "explicit_paddings": {"list": {}}, "padding": {"s": "U0FNRQ=="}, "num_host_args": {"i": "0"}, "num_args": {"i": "1"}, "strides": {"list": {"i": ["1", "1", "1", "1"]}}, "leakyrelu_alpha": {"f": 0.2}}}, {"name": "StatefulPartitionedCall/inception_v3/activation_125/Relu", "op": "_FusedConv2D", "input": ["StatefulPartitionedCall/inception_v3/mixed3/concat", "StatefulPartitionedCall/inception_v3/conv2d_125/Conv2D_weights", "StatefulPartitionedCall/inception_v3/conv2d_125/Conv2D_bn_offset"], "device": "/device:CPU:0", "attr": {"use_cudnn_on_gpu": {"b": true}, "T": {"type": "DT_FLOAT"}, "dilations": {"list": {"i": ["1", "1", "1", "1"]}}, "leakyrelu_alpha": {"f": 0.2}, "data_format": {"s": "TkhXQw=="}, "strides": {"list": {"i": ["1", "1", "1", "1"]}}, "num_args": {"i": "1"}, "TArgs": {"list": {"type": ["DT_FLOAT"]}}, "filter_format": {"s": "SFdJTw=="}, "epsilon": {"f": 0.0}, "fused_ops": {"list": {"s": ["Qmlhc0FkZA==", "UmVsdQ=="]}}, "padding": {"s": "U0FNRQ=="}, "explicit_paddings": {"list": {}}, "num_host_args": {"i": "0"}}}, {"name": "StatefulPartitionedCall/inception_v3/activation_128/Relu", "op": "_FusedConv2D", "input": ["StatefulPartitionedCall/inception_v3/mixed3/concat", "StatefulPartitionedCall/inception_v3/conv2d_128/Conv2D_weights", "StatefulPartitionedCall/inception_v3/conv2d_128/Conv2D_bn_offset"], "device": "/device:CPU:0", "attr": {"explicit_paddings": {"list": {}}, "padding": {"s": "U0FNRQ=="}, "use_cudnn_on_gpu": {"b": true}, "leakyrelu_alpha": {"f": 0.2}, "num_host_args": {"i": "0"}, "num_args": {"i": "1"}, "TArgs": {"list": {"type": ["DT_FLOAT"]}}, "strides": {"list": {"i": ["1", "1", "1", "1"]}}, "data_format": {"s": "TkhXQw=="}, "filter_format": {"s": "SFdJTw=="}, "fused_ops": {"list": {"s": ["Qmlhc0FkZA==", "UmVsdQ=="]}}, "epsilon": {"f": 0.0}, "dilations": {"list": {"i": ["1", "1", "1", "1"]}}, "T": {"type": "DT_FLOAT"}}}, {"name": "StatefulPartitionedCall/inception_v3/activation_133/Relu", "op": "_FusedConv2D", "input": ["StatefulPartitionedCall/inception_v3/average_pooling2d_12/AvgPool", "StatefulPartitionedCall/inception_v3/conv2d_133/Conv2D_weights", "StatefulPartitionedCall/inception_v3/conv2d_133/Conv2D_bn_offset"], "device": "/device:CPU:0", "attr": {"num_host_args": {"i": "0"}, "dilations": {"list": {"i": ["1", "1", "1", "1"]}}, "filter_format": {"s": "SFdJTw=="}, "explicit_paddings": {"list": {}}, "strides": {"list": {"i": ["1", "1", "1", "1"]}}, "data_format": {"s": "TkhXQw=="}, "TArgs": {"list": {"type": ["DT_FLOAT"]}}, "use_cudnn_on_gpu": {"b": true}, "padding": {"s": "U0FNRQ=="}, "num_args": {"i": "1"}, "epsilon": {"f": 0.0}, "leakyrelu_alpha": {"f": 0.2}, "fused_ops": {"list": {"s": ["Qmlhc0FkZA==", "UmVsdQ=="]}}, "T": {"type": "DT_FLOAT"}}}, {"name": "StatefulPartitionedCall/inception_v3/activation_126/Relu", "op": "_FusedConv2D", "input": ["StatefulPartitionedCall/inception_v3/activation_125/Relu", "StatefulPartitionedCall/inception_v3/conv2d_126/Conv2D_weights", "StatefulPartitionedCall/inception_v3/conv2d_126/Conv2D_bn_offset"], "device": "/device:CPU:0", "attr": {"padding": {"s": "U0FNRQ=="}, "num_host_args": {"i": "0"}, "strides": {"list": {"i": ["1", "1", "1", "1"]}}, "dilations": {"list": {"i": ["1", "1", "1", "1"]}}, "fused_ops": {"list": {"s": ["Qmlhc0FkZA==", "UmVsdQ=="]}}, "explicit_paddings": {"list": {}}, "data_format": {"s": "TkhXQw=="}, "epsilon": {"f": 0.0}, "use_cudnn_on_gpu": {"b": true}, "num_args": {"i": "1"}, "TArgs": {"list": {"type": ["DT_FLOAT"]}}, "filter_format": {"s": "SFdJTw=="}, "leakyrelu_alpha": {"f": 0.2}, "T": {"type": "DT_FLOAT"}}}, {"name": "StatefulPartitionedCall/inception_v3/activation_129/Relu", "op": "_FusedConv2D", "input": ["StatefulPartitionedCall/inception_v3/activation_128/Relu", "StatefulPartitionedCall/inception_v3/conv2d_129/Conv2D_weights", "StatefulPartitionedCall/inception_v3/conv2d_129/Conv2D_bn_offset"], "device": "/device:CPU:0", "attr": {"use_cudnn_on_gpu": {"b": true}, "explicit_paddings": {"list": {}}, "epsilon": {"f": 0.0}, "num_host_args": {"i": "0"}, "filter_format": {"s": "SFdJTw=="}, "strides": {"list": {"i": ["1", "1", "1", "1"]}}, "num_args": {"i": "1"}, "leakyrelu_alpha": {"f": 0.2}, "T": {"type": "DT_FLOAT"}, "padding": {"s": "U0FNRQ=="}, "TArgs": {"list": {"type": ["DT_FLOAT"]}}, "data_format": {"s": "TkhXQw=="}, "dilations": {"list": {"i": ["1", "1", "1", "1"]}}, "fused_ops": {"list": {"s": ["Qmlhc0FkZA==", "UmVsdQ=="]}}}}, {"name": "StatefulPartitionedCall/inception_v3/activation_127/Relu", "op": "_FusedConv2D", "input": ["StatefulPartitionedCall/inception_v3/activation_126/Relu", "StatefulPartitionedCall/inception_v3/conv2d_127/Conv2D_weights", "StatefulPartitionedCall/inception_v3/conv2d_127/Conv2D_bn_offset"], "device": "/device:CPU:0", "attr": {"T": {"type": "DT_FLOAT"}, "dilations": {"list": {"i": ["1", "1", "1", "1"]}}, "num_host_args": {"i": "0"}, "filter_format": {"s": "SFdJTw=="}, "data_format": {"s": "TkhXQw=="}, "leakyrelu_alpha": {"f": 0.2}, "epsilon": {"f": 0.0}, "strides": {"list": {"i": ["1", "1", "1", "1"]}}, "fused_ops": {"list": {"s": ["Qmlhc0FkZA==", "UmVsdQ=="]}}, "explicit_paddings": {"list": {}}, "TArgs": {"list": {"type": ["DT_FLOAT"]}}, "use_cudnn_on_gpu": {"b": true}, "num_args": {"i": "1"}, "padding": {"s": "U0FNRQ=="}}}, {"name": "StatefulPartitionedCall/inception_v3/activation_130/Relu", "op": "_FusedConv2D", "input": ["StatefulPartitionedCall/inception_v3/activation_129/Relu", "StatefulPartitionedCall/inception_v3/conv2d_130/Conv2D_weights", "StatefulPartitionedCall/inception_v3/conv2d_130/Conv2D_bn_offset"], "device": "/device:CPU:0", "attr": {"epsilon": {"f": 0.0}, "num_host_args": {"i": "0"}, "num_args": {"i": "1"}, "strides": {"list": {"i": ["1", "1", "1", "1"]}}, "dilations": {"list": {"i": ["1", "1", "1", "1"]}}, "explicit_paddings": {"list": {}}, "filter_format": {"s": "SFdJTw=="}, "T": {"type": "DT_FLOAT"}, "fused_ops": {"list": {"s": ["Qmlhc0FkZA==", "UmVsdQ=="]}}, "TArgs": {"list": {"type": ["DT_FLOAT"]}}, "data_format": {"s": "TkhXQw=="}, "padding": {"s": "U0FNRQ=="}, "leakyrelu_alpha": {"f": 0.2}, "use_cudnn_on_gpu": {"b": true}}}, {"name": "StatefulPartitionedCall/inception_v3/activation_131/Relu", "op": "_FusedConv2D", "input": ["StatefulPartitionedCall/inception_v3/activation_130/Relu", "StatefulPartitionedCall/inception_v3/conv2d_131/Conv2D_weights", "StatefulPartitionedCall/inception_v3/conv2d_131/Conv2D_bn_offset"], "device": "/device:CPU:0", "attr": {"T": {"type": "DT_FLOAT"}, "num_host_args": {"i": "0"}, "data_format": {"s": "TkhXQw=="}, "fused_ops": {"list": {"s": ["Qmlhc0FkZA==", "UmVsdQ=="]}}, "filter_format": {"s": "SFdJTw=="}, "padding": {"s": "U0FNRQ=="}, "use_cudnn_on_gpu": {"b": true}, "num_args": {"i": "1"}, "TArgs": {"list": {"type": ["DT_FLOAT"]}}, "strides": {"list": {"i": ["1", "1", "1", "1"]}}, "epsilon": {"f": 0.0}, "explicit_paddings": {"list": {}}, "dilations": {"list": {"i": ["1", "1", "1", "1"]}}, "leakyrelu_alpha": {"f": 0.2}}}, {"name": "StatefulPartitionedCall/inception_v3/activation_132/Relu", "op": "_FusedConv2D", "input": ["StatefulPartitionedCall/inception_v3/activation_131/Relu", "StatefulPartitionedCall/inception_v3/conv2d_132/Conv2D_weights", "StatefulPartitionedCall/inception_v3/conv2d_132/Conv2D_bn_offset"], "device": "/device:CPU:0", "attr": {"fused_ops": {"list": {"s": ["Qmlhc0FkZA==", "UmVsdQ=="]}}, "explicit_paddings": {"list": {}}, "num_args": {"i": "1"}, "num_host_args": {"i": "0"}, "epsilon": {"f": 0.0}, "strides": {"list": {"i": ["1", "1", "1", "1"]}}, "dilations": {"list": {"i": ["1", "1", "1", "1"]}}, "TArgs": {"list": {"type": ["DT_FLOAT"]}}, "filter_format": {"s": "SFdJTw=="}, "use_cudnn_on_gpu": {"b": true}, "data_format": {"s": "TkhXQw=="}, "padding": {"s": "U0FNRQ=="}, "leakyrelu_alpha": {"f": 0.2}, "T": {"type": "DT_FLOAT"}}}, {"name": "StatefulPartitionedCall/inception_v3/mixed4/concat", "op": "ConcatV2", "input": ["StatefulPartitionedCall/inception_v3/activation_124/Relu", "StatefulPartitionedCall/inception_v3/activation_127/Relu", "StatefulPartitionedCall/inception_v3/activation_132/Relu", "StatefulPartitionedCall/inception_v3/activation_133/Relu", "StatefulPartitionedCall/inception_v3/mixed4/concat/axis"], "attr": {"Tidx": {"type": "DT_INT32"}, "N": {"i": "4"}, "T": {"type": "DT_FLOAT"}}}, {"name": "StatefulPartitionedCall/inception_v3/average_pooling2d_13/AvgPool", "op": "AvgPool", "input": ["StatefulPartitionedCall/inception_v3/mixed4/concat"], "attr": {"padding": {"s": "U0FNRQ=="}, "T": {"type": "DT_FLOAT"}, "data_format": {"s": "TkhXQw=="}, "ksize": {"list": {"i": ["1", "3", "3", "1"]}}, "strides": {"list": {"i": ["1", "1", "1", "1"]}}}}, {"name": "StatefulPartitionedCall/inception_v3/activation_134/Relu", "op": "_FusedConv2D", "input": ["StatefulPartitionedCall/inception_v3/mixed4/concat", "StatefulPartitionedCall/inception_v3/conv2d_134/Conv2D_weights", "StatefulPartitionedCall/inception_v3/conv2d_134/Conv2D_bn_offset"], "device": "/device:CPU:0", "attr": {"num_args": {"i": "1"}, "dilations": {"list": {"i": ["1", "1", "1", "1"]}}, "filter_format": {"s": "SFdJTw=="}, "epsilon": {"f": 0.0}, "strides": {"list": {"i": ["1", "1", "1", "1"]}}, "num_host_args": {"i": "0"}, "T": {"type": "DT_FLOAT"}, "padding": {"s": "U0FNRQ=="}, "explicit_paddings": {"list": {}}, "TArgs": {"list": {"type": ["DT_FLOAT"]}}, "fused_ops": {"list": {"s": ["Qmlhc0FkZA==", "UmVsdQ=="]}}, "leakyrelu_alpha": {"f": 0.2}, "use_cudnn_on_gpu": {"b": true}, "data_format": {"s": "TkhXQw=="}}}, {"name": "StatefulPartitionedCall/inception_v3/activation_135/Relu", "op": "_FusedConv2D", "input": ["StatefulPartitionedCall/inception_v3/mixed4/concat", "StatefulPartitionedCall/inception_v3/conv2d_135/Conv2D_weights", "StatefulPartitionedCall/inception_v3/conv2d_135/Conv2D_bn_offset"], "device": "/device:CPU:0", "attr": {"dilations": {"list": {"i": ["1", "1", "1", "1"]}}, "strides": {"list": {"i": ["1", "1", "1", "1"]}}, "data_format": {"s": "TkhXQw=="}, "epsilon": {"f": 0.0}, "num_host_args": {"i": "0"}, "leakyrelu_alpha": {"f": 0.2}, "filter_format": {"s": "SFdJTw=="}, "use_cudnn_on_gpu": {"b": true}, "padding": {"s": "U0FNRQ=="}, "TArgs": {"list": {"type": ["DT_FLOAT"]}}, "explicit_paddings": {"list": {}}, "fused_ops": {"list": {"s": ["Qmlhc0FkZA==", "UmVsdQ=="]}}, "num_args": {"i": "1"}, "T": {"type": "DT_FLOAT"}}}, {"name": "StatefulPartitionedCall/inception_v3/activation_138/Relu", "op": "_FusedConv2D", "input": ["StatefulPartitionedCall/inception_v3/mixed4/concat", "StatefulPartitionedCall/inception_v3/conv2d_138/Conv2D_weights", "StatefulPartitionedCall/inception_v3/conv2d_138/Conv2D_bn_offset"], "device": "/device:CPU:0", "attr": {"dilations": {"list": {"i": ["1", "1", "1", "1"]}}, "filter_format": {"s": "SFdJTw=="}, "TArgs": {"list": {"type": ["DT_FLOAT"]}}, "padding": {"s": "U0FNRQ=="}, "epsilon": {"f": 0.0}, "num_host_args": {"i": "0"}, "fused_ops": {"list": {"s": ["Qmlhc0FkZA==", "UmVsdQ=="]}}, "T": {"type": "DT_FLOAT"}, "data_format": {"s": "TkhXQw=="}, "num_args": {"i": "1"}, "leakyrelu_alpha": {"f": 0.2}, "use_cudnn_on_gpu": {"b": true}, "explicit_paddings": {"list": {}}, "strides": {"list": {"i": ["1", "1", "1", "1"]}}}}, {"name": "StatefulPartitionedCall/inception_v3/activation_143/Relu", "op": "_FusedConv2D", "input": ["StatefulPartitionedCall/inception_v3/average_pooling2d_13/AvgPool", "StatefulPartitionedCall/inception_v3/conv2d_143/Conv2D_weights", "StatefulPartitionedCall/inception_v3/conv2d_143/Conv2D_bn_offset"], "device": "/device:CPU:0", "attr": {"padding": {"s": "U0FNRQ=="}, "data_format": {"s": "TkhXQw=="}, "use_cudnn_on_gpu": {"b": true}, "num_host_args": {"i": "0"}, "filter_format": {"s": "SFdJTw=="}, "leakyrelu_alpha": {"f": 0.2}, "TArgs": {"list": {"type": ["DT_FLOAT"]}}, "strides": {"list": {"i": ["1", "1", "1", "1"]}}, "num_args": {"i": "1"}, "T": {"type": "DT_FLOAT"}, "explicit_paddings": {"list": {}}, "fused_ops": {"list": {"s": ["Qmlhc0FkZA==", "UmVsdQ=="]}}, "dilations": {"list": {"i": ["1", "1", "1", "1"]}}, "epsilon": {"f": 0.0}}}, {"name": "StatefulPartitionedCall/inception_v3/activation_136/Relu", "op": "_FusedConv2D", "input": ["StatefulPartitionedCall/inception_v3/activation_135/Relu", "StatefulPartitionedCall/inception_v3/conv2d_136/Conv2D_weights", "StatefulPartitionedCall/inception_v3/conv2d_136/Conv2D_bn_offset"], "device": "/device:CPU:0", "attr": {"T": {"type": "DT_FLOAT"}, "fused_ops": {"list": {"s": ["Qmlhc0FkZA==", "UmVsdQ=="]}}, "num_args": {"i": "1"}, "filter_format": {"s": "SFdJTw=="}, "padding": {"s": "U0FNRQ=="}, "num_host_args": {"i": "0"}, "strides": {"list": {"i": ["1", "1", "1", "1"]}}, "epsilon": {"f": 0.0}, "dilations": {"list": {"i": ["1", "1", "1", "1"]}}, "TArgs": {"list": {"type": ["DT_FLOAT"]}}, "data_format": {"s": "TkhXQw=="}, "leakyrelu_alpha": {"f": 0.2}, "explicit_paddings": {"list": {}}, "use_cudnn_on_gpu": {"b": true}}}, {"name": "StatefulPartitionedCall/inception_v3/activation_139/Relu", "op": "_FusedConv2D", "input": ["StatefulPartitionedCall/inception_v3/activation_138/Relu", "StatefulPartitionedCall/inception_v3/conv2d_139/Conv2D_weights", "StatefulPartitionedCall/inception_v3/conv2d_139/Conv2D_bn_offset"], "device": "/device:CPU:0", "attr": {"explicit_paddings": {"list": {}}, "data_format": {"s": "TkhXQw=="}, "TArgs": {"list": {"type": ["DT_FLOAT"]}}, "leakyrelu_alpha": {"f": 0.2}, "num_host_args": {"i": "0"}, "T": {"type": "DT_FLOAT"}, "dilations": {"list": {"i": ["1", "1", "1", "1"]}}, "use_cudnn_on_gpu": {"b": true}, "epsilon": {"f": 0.0}, "padding": {"s": "U0FNRQ=="}, "strides": {"list": {"i": ["1", "1", "1", "1"]}}, "fused_ops": {"list": {"s": ["Qmlhc0FkZA==", "UmVsdQ=="]}}, "filter_format": {"s": "SFdJTw=="}, "num_args": {"i": "1"}}}, {"name": "StatefulPartitionedCall/inception_v3/activation_137/Relu", "op": "_FusedConv2D", "input": ["StatefulPartitionedCall/inception_v3/activation_136/Relu", "StatefulPartitionedCall/inception_v3/conv2d_137/Conv2D_weights", "StatefulPartitionedCall/inception_v3/conv2d_137/Conv2D_bn_offset"], "device": "/device:CPU:0", "attr": {"epsilon": {"f": 0.0}, "leakyrelu_alpha": {"f": 0.2}, "explicit_paddings": {"list": {}}, "TArgs": {"list": {"type": ["DT_FLOAT"]}}, "T": {"type": "DT_FLOAT"}, "strides": {"list": {"i": ["1", "1", "1", "1"]}}, "fused_ops": {"list": {"s": ["Qmlhc0FkZA==", "UmVsdQ=="]}}, "padding": {"s": "U0FNRQ=="}, "num_host_args": {"i": "0"}, "data_format": {"s": "TkhXQw=="}, "use_cudnn_on_gpu": {"b": true}, "filter_format": {"s": "SFdJTw=="}, "num_args": {"i": "1"}, "dilations": {"list": {"i": ["1", "1", "1", "1"]}}}}, {"name": "StatefulPartitionedCall/inception_v3/activation_140/Relu", "op": "_FusedConv2D", "input": ["StatefulPartitionedCall/inception_v3/activation_139/Relu", "StatefulPartitionedCall/inception_v3/conv2d_140/Conv2D_weights", "StatefulPartitionedCall/inception_v3/conv2d_140/Conv2D_bn_offset"], "device": "/device:CPU:0", "attr": {"leakyrelu_alpha": {"f": 0.2}, "padding": {"s": "U0FNRQ=="}, "use_cudnn_on_gpu": {"b": true}, "num_host_args": {"i": "0"}, "T": {"type": "DT_FLOAT"}, "TArgs": {"list": {"type": ["DT_FLOAT"]}}, "num_args": {"i": "1"}, "strides": {"list": {"i": ["1", "1", "1", "1"]}}, "dilations": {"list": {"i": ["1", "1", "1", "1"]}}, "filter_format": {"s": "SFdJTw=="}, "epsilon": {"f": 0.0}, "data_format": {"s": "TkhXQw=="}, "fused_ops": {"list": {"s": ["Qmlhc0FkZA==", "UmVsdQ=="]}}, "explicit_paddings": {"list": {}}}}, {"name": "StatefulPartitionedCall/inception_v3/activation_141/Relu", "op": "_FusedConv2D", "input": ["StatefulPartitionedCall/inception_v3/activation_140/Relu", "StatefulPartitionedCall/inception_v3/conv2d_141/Conv2D_weights", "StatefulPartitionedCall/inception_v3/conv2d_141/Conv2D_bn_offset"], "device": "/device:CPU:0", "attr": {"filter_format": {"s": "SFdJTw=="}, "leakyrelu_alpha": {"f": 0.2}, "use_cudnn_on_gpu": {"b": true}, "num_args": {"i": "1"}, "dilations": {"list": {"i": ["1", "1", "1", "1"]}}, "data_format": {"s": "TkhXQw=="}, "epsilon": {"f": 0.0}, "fused_ops": {"list": {"s": ["Qmlhc0FkZA==", "UmVsdQ=="]}}, "explicit_paddings": {"list": {}}, "TArgs": {"list": {"type": ["DT_FLOAT"]}}, "strides": {"list": {"i": ["1", "1", "1", "1"]}}, "num_host_args": {"i": "0"}, "T": {"type": "DT_FLOAT"}, "padding": {"s": "U0FNRQ=="}}}, {"name": "StatefulPartitionedCall/inception_v3/activation_142/Relu", "op": "_FusedConv2D", "input": ["StatefulPartitionedCall/inception_v3/activation_141/Relu", "StatefulPartitionedCall/inception_v3/conv2d_142/Conv2D_weights", "StatefulPartitionedCall/inception_v3/conv2d_142/Conv2D_bn_offset"], "device": "/device:CPU:0", "attr": {"dilations": {"list": {"i": ["1", "1", "1", "1"]}}, "T": {"type": "DT_FLOAT"}, "num_args": {"i": "1"}, "strides": {"list": {"i": ["1", "1", "1", "1"]}}, "fused_ops": {"list": {"s": ["Qmlhc0FkZA==", "UmVsdQ=="]}}, "num_host_args": {"i": "0"}, "TArgs": {"list": {"type": ["DT_FLOAT"]}}, "leakyrelu_alpha": {"f": 0.2}, "filter_format": {"s": "SFdJTw=="}, "data_format": {"s": "TkhXQw=="}, "use_cudnn_on_gpu": {"b": true}, "explicit_paddings": {"list": {}}, "epsilon": {"f": 0.0}, "padding": {"s": "U0FNRQ=="}}}, {"name": "StatefulPartitionedCall/inception_v3/mixed5/concat", "op": "ConcatV2", "input": ["StatefulPartitionedCall/inception_v3/activation_134/Relu", "StatefulPartitionedCall/inception_v3/activation_137/Relu", "StatefulPartitionedCall/inception_v3/activation_142/Relu", "StatefulPartitionedCall/inception_v3/activation_143/Relu", "StatefulPartitionedCall/inception_v3/mixed5/concat/axis"], "attr": {"N": {"i": "4"}, "T": {"type": "DT_FLOAT"}, "Tidx": {"type": "DT_INT32"}}}, {"name": "StatefulPartitionedCall/inception_v3/average_pooling2d_14/AvgPool", "op": "AvgPool", "input": ["StatefulPartitionedCall/inception_v3/mixed5/concat"], "attr": {"T": {"type": "DT_FLOAT"}, "ksize": {"list": {"i": ["1", "3", "3", "1"]}}, "padding": {"s": "U0FNRQ=="}, "strides": {"list": {"i": ["1", "1", "1", "1"]}}, "data_format": {"s": "TkhXQw=="}}}, {"name": "StatefulPartitionedCall/inception_v3/activation_144/Relu", "op": "_FusedConv2D", "input": ["StatefulPartitionedCall/inception_v3/mixed5/concat", "StatefulPartitionedCall/inception_v3/conv2d_144/Conv2D_weights", "StatefulPartitionedCall/inception_v3/conv2d_144/Conv2D_bn_offset"], "device": "/device:CPU:0", "attr": {"filter_format": {"s": "SFdJTw=="}, "padding": {"s": "U0FNRQ=="}, "data_format": {"s": "TkhXQw=="}, "epsilon": {"f": 0.0}, "TArgs": {"list": {"type": ["DT_FLOAT"]}}, "fused_ops": {"list": {"s": ["Qmlhc0FkZA==", "UmVsdQ=="]}}, "num_args": {"i": "1"}, "num_host_args": {"i": "0"}, "use_cudnn_on_gpu": {"b": true}, "T": {"type": "DT_FLOAT"}, "explicit_paddings": {"list": {}}, "strides": {"list": {"i": ["1", "1", "1", "1"]}}, "leakyrelu_alpha": {"f": 0.2}, "dilations": {"list": {"i": ["1", "1", "1", "1"]}}}}, {"name": "StatefulPartitionedCall/inception_v3/activation_145/Relu", "op": "_FusedConv2D", "input": ["StatefulPartitionedCall/inception_v3/mixed5/concat", "StatefulPartitionedCall/inception_v3/conv2d_145/Conv2D_weights", "StatefulPartitionedCall/inception_v3/conv2d_145/Conv2D_bn_offset"], "device": "/device:CPU:0", "attr": {"TArgs": {"list": {"type": ["DT_FLOAT"]}}, "leakyrelu_alpha": {"f": 0.2}, "data_format": {"s": "TkhXQw=="}, "T": {"type": "DT_FLOAT"}, "epsilon": {"f": 0.0}, "strides": {"list": {"i": ["1", "1", "1", "1"]}}, "explicit_paddings": {"list": {}}, "dilations": {"list": {"i": ["1", "1", "1", "1"]}}, "num_host_args": {"i": "0"}, "num_args": {"i": "1"}, "padding": {"s": "U0FNRQ=="}, "filter_format": {"s": "SFdJTw=="}, "fused_ops": {"list": {"s": ["Qmlhc0FkZA==", "UmVsdQ=="]}}, "use_cudnn_on_gpu": {"b": true}}}, {"name": "StatefulPartitionedCall/inception_v3/activation_148/Relu", "op": "_FusedConv2D", "input": ["StatefulPartitionedCall/inception_v3/mixed5/concat", "StatefulPartitionedCall/inception_v3/conv2d_148/Conv2D_weights", "StatefulPartitionedCall/inception_v3/conv2d_148/Conv2D_bn_offset"], "device": "/device:CPU:0", "attr": {"num_args": {"i": "1"}, "num_host_args": {"i": "0"}, "leakyrelu_alpha": {"f": 0.2}, "dilations": {"list": {"i": ["1", "1", "1", "1"]}}, "strides": {"list": {"i": ["1", "1", "1", "1"]}}, "padding": {"s": "U0FNRQ=="}, "epsilon": {"f": 0.0}, "fused_ops": {"list": {"s": ["Qmlhc0FkZA==", "UmVsdQ=="]}}, "data_format": {"s": "TkhXQw=="}, "T": {"type": "DT_FLOAT"}, "use_cudnn_on_gpu": {"b": true}, "filter_format": {"s": "SFdJTw=="}, "TArgs": {"list": {"type": ["DT_FLOAT"]}}, "explicit_paddings": {"list": {}}}}, {"name": "StatefulPartitionedCall/inception_v3/activation_153/Relu", "op": "_FusedConv2D", "input": ["StatefulPartitionedCall/inception_v3/average_pooling2d_14/AvgPool", "StatefulPartitionedCall/inception_v3/conv2d_153/Conv2D_weights", "StatefulPartitionedCall/inception_v3/conv2d_153/Conv2D_bn_offset"], "device": "/device:CPU:0", "attr": {"T": {"type": "DT_FLOAT"}, "fused_ops": {"list": {"s": ["Qmlhc0FkZA==", "UmVsdQ=="]}}, "TArgs": {"list": {"type": ["DT_FLOAT"]}}, "use_cudnn_on_gpu": {"b": true}, "epsilon": {"f": 0.0}, "num_args": {"i": "1"}, "strides": {"list": {"i": ["1", "1", "1", "1"]}}, "padding": {"s": "U0FNRQ=="}, "filter_format": {"s": "SFdJTw=="}, "num_host_args": {"i": "0"}, "dilations": {"list": {"i": ["1", "1", "1", "1"]}}, "explicit_paddings": {"list": {}}, "leakyrelu_alpha": {"f": 0.2}, "data_format": {"s": "TkhXQw=="}}}, {"name": "StatefulPartitionedCall/inception_v3/activation_146/Relu", "op": "_FusedConv2D", "input": ["StatefulPartitionedCall/inception_v3/activation_145/Relu", "StatefulPartitionedCall/inception_v3/conv2d_146/Conv2D_weights", "StatefulPartitionedCall/inception_v3/conv2d_146/Conv2D_bn_offset"], "device": "/device:CPU:0", "attr": {"T": {"type": "DT_FLOAT"}, "num_host_args": {"i": "0"}, "dilations": {"list": {"i": ["1", "1", "1", "1"]}}, "epsilon": {"f": 0.0}, "use_cudnn_on_gpu": {"b": true}, "data_format": {"s": "TkhXQw=="}, "explicit_paddings": {"list": {}}, "TArgs": {"list": {"type": ["DT_FLOAT"]}}, "fused_ops": {"list": {"s": ["Qmlhc0FkZA==", "UmVsdQ=="]}}, "leakyrelu_alpha": {"f": 0.2}, "filter_format": {"s": "SFdJTw=="}, "padding": {"s": "U0FNRQ=="}, "strides": {"list": {"i": ["1", "1", "1", "1"]}}, "num_args": {"i": "1"}}}, {"name": "StatefulPartitionedCall/inception_v3/activation_149/Relu", "op": "_FusedConv2D", "input": ["StatefulPartitionedCall/inception_v3/activation_148/Relu", "StatefulPartitionedCall/inception_v3/conv2d_149/Conv2D_weights", "StatefulPartitionedCall/inception_v3/conv2d_149/Conv2D_bn_offset"], "device": "/device:CPU:0", "attr": {"filter_format": {"s": "SFdJTw=="}, "fused_ops": {"list": {"s": ["Qmlhc0FkZA==", "UmVsdQ=="]}}, "padding": {"s": "U0FNRQ=="}, "leakyrelu_alpha": {"f": 0.2}, "num_args": {"i": "1"}, "dilations": {"list": {"i": ["1", "1", "1", "1"]}}, "T": {"type": "DT_FLOAT"}, "epsilon": {"f": 0.0}, "explicit_paddings": {"list": {}}, "use_cudnn_on_gpu": {"b": true}, "num_host_args": {"i": "0"}, "strides": {"list": {"i": ["1", "1", "1", "1"]}}, "data_format": {"s": "TkhXQw=="}, "TArgs": {"list": {"type": ["DT_FLOAT"]}}}}, {"name": "StatefulPartitionedCall/inception_v3/activation_147/Relu", "op": "_FusedConv2D", "input": ["StatefulPartitionedCall/inception_v3/activation_146/Relu", "StatefulPartitionedCall/inception_v3/conv2d_147/Conv2D_weights", "StatefulPartitionedCall/inception_v3/conv2d_147/Conv2D_bn_offset"], "device": "/device:CPU:0", "attr": {"padding": {"s": "U0FNRQ=="}, "use_cudnn_on_gpu": {"b": true}, "data_format": {"s": "TkhXQw=="}, "num_args": {"i": "1"}, "num_host_args": {"i": "0"}, "strides": {"list": {"i": ["1", "1", "1", "1"]}}, "fused_ops": {"list": {"s": ["Qmlhc0FkZA==", "UmVsdQ=="]}}, "T": {"type": "DT_FLOAT"}, "filter_format": {"s": "SFdJTw=="}, "dilations": {"list": {"i": ["1", "1", "1", "1"]}}, "leakyrelu_alpha": {"f": 0.2}, "explicit_paddings": {"list": {}}, "TArgs": {"list": {"type": ["DT_FLOAT"]}}, "epsilon": {"f": 0.0}}}, {"name": "StatefulPartitionedCall/inception_v3/activation_150/Relu", "op": "_FusedConv2D", "input": ["StatefulPartitionedCall/inception_v3/activation_149/Relu", "StatefulPartitionedCall/inception_v3/conv2d_150/Conv2D_weights", "StatefulPartitionedCall/inception_v3/conv2d_150/Conv2D_bn_offset"], "device": "/device:CPU:0", "attr": {"num_host_args": {"i": "0"}, "T": {"type": "DT_FLOAT"}, "fused_ops": {"list": {"s": ["Qmlhc0FkZA==", "UmVsdQ=="]}}, "strides": {"list": {"i": ["1", "1", "1", "1"]}}, "data_format": {"s": "TkhXQw=="}, "num_args": {"i": "1"}, "epsilon": {"f": 0.0}, "use_cudnn_on_gpu": {"b": true}, "dilations": {"list": {"i": ["1", "1", "1", "1"]}}, "leakyrelu_alpha": {"f": 0.2}, "filter_format": {"s": "SFdJTw=="}, "explicit_paddings": {"list": {}}, "TArgs": {"list": {"type": ["DT_FLOAT"]}}, "padding": {"s": "U0FNRQ=="}}}, {"name": "StatefulPartitionedCall/inception_v3/activation_151/Relu", "op": "_FusedConv2D", "input": ["StatefulPartitionedCall/inception_v3/activation_150/Relu", "StatefulPartitionedCall/inception_v3/conv2d_151/Conv2D_weights", "StatefulPartitionedCall/inception_v3/conv2d_151/Conv2D_bn_offset"], "device": "/device:CPU:0", "attr": {"dilations": {"list": {"i": ["1", "1", "1", "1"]}}, "explicit_paddings": {"list": {}}, "TArgs": {"list": {"type": ["DT_FLOAT"]}}, "use_cudnn_on_gpu": {"b": true}, "padding": {"s": "U0FNRQ=="}, "filter_format": {"s": "SFdJTw=="}, "T": {"type": "DT_FLOAT"}, "num_args": {"i": "1"}, "num_host_args": {"i": "0"}, "fused_ops": {"list": {"s": ["Qmlhc0FkZA==", "UmVsdQ=="]}}, "epsilon": {"f": 0.0}, "data_format": {"s": "TkhXQw=="}, "strides": {"list": {"i": ["1", "1", "1", "1"]}}, "leakyrelu_alpha": {"f": 0.2}}}, {"name": "StatefulPartitionedCall/inception_v3/activation_152/Relu", "op": "_FusedConv2D", "input": ["StatefulPartitionedCall/inception_v3/activation_151/Relu", "StatefulPartitionedCall/inception_v3/conv2d_152/Conv2D_weights", "StatefulPartitionedCall/inception_v3/conv2d_152/Conv2D_bn_offset"], "device": "/device:CPU:0", "attr": {"dilations": {"list": {"i": ["1", "1", "1", "1"]}}, "padding": {"s": "U0FNRQ=="}, "epsilon": {"f": 0.0}, "TArgs": {"list": {"type": ["DT_FLOAT"]}}, "fused_ops": {"list": {"s": ["Qmlhc0FkZA==", "UmVsdQ=="]}}, "num_host_args": {"i": "0"}, "filter_format": {"s": "SFdJTw=="}, "leakyrelu_alpha": {"f": 0.2}, "T": {"type": "DT_FLOAT"}, "strides": {"list": {"i": ["1", "1", "1", "1"]}}, "data_format": {"s": "TkhXQw=="}, "num_args": {"i": "1"}, "explicit_paddings": {"list": {}}, "use_cudnn_on_gpu": {"b": true}}}, {"name": "StatefulPartitionedCall/inception_v3/mixed6/concat", "op": "ConcatV2", "input": ["StatefulPartitionedCall/inception_v3/activation_144/Relu", "StatefulPartitionedCall/inception_v3/activation_147/Relu", "StatefulPartitionedCall/inception_v3/activation_152/Relu", "StatefulPartitionedCall/inception_v3/activation_153/Relu", "StatefulPartitionedCall/inception_v3/mixed6/concat/axis"], "attr": {"N": {"i": "4"}, "T": {"type": "DT_FLOAT"}, "Tidx": {"type": "DT_INT32"}}}, {"name": "StatefulPartitionedCall/inception_v3/average_pooling2d_15/AvgPool", "op": "AvgPool", "input": ["StatefulPartitionedCall/inception_v3/mixed6/concat"], "attr": {"data_format": {"s": "TkhXQw=="}, "ksize": {"list": {"i": ["1", "3", "3", "1"]}}, "strides": {"list": {"i": ["1", "1", "1", "1"]}}, "padding": {"s": "U0FNRQ=="}, "T": {"type": "DT_FLOAT"}}}, {"name": "StatefulPartitionedCall/inception_v3/activation_154/Relu", "op": "_FusedConv2D", "input": ["StatefulPartitionedCall/inception_v3/mixed6/concat", "StatefulPartitionedCall/inception_v3/conv2d_154/Conv2D_weights", "StatefulPartitionedCall/inception_v3/conv2d_154/Conv2D_bn_offset"], "device": "/device:CPU:0", "attr": {"num_host_args": {"i": "0"}, "strides": {"list": {"i": ["1", "1", "1", "1"]}}, "leakyrelu_alpha": {"f": 0.2}, "dilations": {"list": {"i": ["1", "1", "1", "1"]}}, "fused_ops": {"list": {"s": ["Qmlhc0FkZA==", "UmVsdQ=="]}}, "filter_format": {"s": "SFdJTw=="}, "num_args": {"i": "1"}, "T": {"type": "DT_FLOAT"}, "use_cudnn_on_gpu": {"b": true}, "epsilon": {"f": 0.0}, "explicit_paddings": {"list": {}}, "TArgs": {"list": {"type": ["DT_FLOAT"]}}, "data_format": {"s": "TkhXQw=="}, "padding": {"s": "U0FNRQ=="}}}, {"name": "StatefulPartitionedCall/inception_v3/activation_155/Relu", "op": "_FusedConv2D", "input": ["StatefulPartitionedCall/inception_v3/mixed6/concat", "StatefulPartitionedCall/inception_v3/conv2d_155/Conv2D_weights", "StatefulPartitionedCall/inception_v3/conv2d_155/Conv2D_bn_offset"], "device": "/device:CPU:0", "attr": {"num_args": {"i": "1"}, "num_host_args": {"i": "0"}, "strides": {"list": {"i": ["1", "1", "1", "1"]}}, "fused_ops": {"list": {"s": ["Qmlhc0FkZA==", "UmVsdQ=="]}}, "leakyrelu_alpha": {"f": 0.2}, "use_cudnn_on_gpu": {"b": true}, "data_format": {"s": "TkhXQw=="}, "T": {"type": "DT_FLOAT"}, "padding": {"s": "U0FNRQ=="}, "filter_format": {"s": "SFdJTw=="}, "TArgs": {"list": {"type": ["DT_FLOAT"]}}, "epsilon": {"f": 0.0}, "explicit_paddings": {"list": {}}, "dilations": {"list": {"i": ["1", "1", "1", "1"]}}}}, {"name": "StatefulPartitionedCall/inception_v3/activation_158/Relu", "op": "_FusedConv2D", "input": ["StatefulPartitionedCall/inception_v3/mixed6/concat", "StatefulPartitionedCall/inception_v3/conv2d_158/Conv2D_weights", "StatefulPartitionedCall/inception_v3/conv2d_158/Conv2D_bn_offset"], "device": "/device:CPU:0", "attr": {"strides": {"list": {"i": ["1", "1", "1", "1"]}}, "num_host_args": {"i": "0"}, "use_cudnn_on_gpu": {"b": true}, "TArgs": {"list": {"type": ["DT_FLOAT"]}}, "T": {"type": "DT_FLOAT"}, "leakyrelu_alpha": {"f": 0.2}, "num_args": {"i": "1"}, "fused_ops": {"list": {"s": ["Qmlhc0FkZA==", "UmVsdQ=="]}}, "dilations": {"list": {"i": ["1", "1", "1", "1"]}}, "epsilon": {"f": 0.0}, "data_format": {"s": "TkhXQw=="}, "padding": {"s": "U0FNRQ=="}, "filter_format": {"s": "SFdJTw=="}, "explicit_paddings": {"list": {}}}}, {"name": "StatefulPartitionedCall/inception_v3/activation_163/Relu", "op": "_FusedConv2D", "input": ["StatefulPartitionedCall/inception_v3/average_pooling2d_15/AvgPool", "StatefulPartitionedCall/inception_v3/conv2d_163/Conv2D_weights", "StatefulPartitionedCall/inception_v3/conv2d_163/Conv2D_bn_offset"], "device": "/device:CPU:0", "attr": {"leakyrelu_alpha": {"f": 0.2}, "dilations": {"list": {"i": ["1", "1", "1", "1"]}}, "T": {"type": "DT_FLOAT"}, "filter_format": {"s": "SFdJTw=="}, "epsilon": {"f": 0.0}, "explicit_paddings": {"list": {}}, "num_host_args": {"i": "0"}, "use_cudnn_on_gpu": {"b": true}, "strides": {"list": {"i": ["1", "1", "1", "1"]}}, "TArgs": {"list": {"type": ["DT_FLOAT"]}}, "num_args": {"i": "1"}, "data_format": {"s": "TkhXQw=="}, "padding": {"s": "U0FNRQ=="}, "fused_ops": {"list": {"s": ["Qmlhc0FkZA==", "UmVsdQ=="]}}}}, {"name": "StatefulPartitionedCall/inception_v3/activation_156/Relu", "op": "_FusedConv2D", "input": ["StatefulPartitionedCall/inception_v3/activation_155/Relu", "StatefulPartitionedCall/inception_v3/conv2d_156/Conv2D_weights", "StatefulPartitionedCall/inception_v3/conv2d_156/Conv2D_bn_offset"], "device": "/device:CPU:0", "attr": {"num_args": {"i": "1"}, "padding": {"s": "U0FNRQ=="}, "strides": {"list": {"i": ["1", "1", "1", "1"]}}, "use_cudnn_on_gpu": {"b": true}, "TArgs": {"list": {"type": ["DT_FLOAT"]}}, "explicit_paddings": {"list": {}}, "num_host_args": {"i": "0"}, "T": {"type": "DT_FLOAT"}, "epsilon": {"f": 0.0}, "data_format": {"s": "TkhXQw=="}, "filter_format": {"s": "SFdJTw=="}, "fused_ops": {"list": {"s": ["Qmlhc0FkZA==", "UmVsdQ=="]}}, "dilations": {"list": {"i": ["1", "1", "1", "1"]}}, "leakyrelu_alpha": {"f": 0.2}}}, {"name": "StatefulPartitionedCall/inception_v3/activation_159/Relu", "op": "_FusedConv2D", "input": ["StatefulPartitionedCall/inception_v3/activation_158/Relu", "StatefulPartitionedCall/inception_v3/conv2d_159/Conv2D_weights", "StatefulPartitionedCall/inception_v3/conv2d_159/Conv2D_bn_offset"], "device": "/device:CPU:0", "attr": {"strides": {"list": {"i": ["1", "1", "1", "1"]}}, "TArgs": {"list": {"type": ["DT_FLOAT"]}}, "data_format": {"s": "TkhXQw=="}, "filter_format": {"s": "SFdJTw=="}, "num_host_args": {"i": "0"}, "leakyrelu_alpha": {"f": 0.2}, "explicit_paddings": {"list": {}}, "use_cudnn_on_gpu": {"b": true}, "num_args": {"i": "1"}, "epsilon": {"f": 0.0}, "dilations": {"list": {"i": ["1", "1", "1", "1"]}}, "T": {"type": "DT_FLOAT"}, "fused_ops": {"list": {"s": ["Qmlhc0FkZA==", "UmVsdQ=="]}}, "padding": {"s": "U0FNRQ=="}}}, {"name": "StatefulPartitionedCall/inception_v3/activation_157/Relu", "op": "_FusedConv2D", "input": ["StatefulPartitionedCall/inception_v3/activation_156/Relu", "StatefulPartitionedCall/inception_v3/conv2d_157/Conv2D_weights", "StatefulPartitionedCall/inception_v3/conv2d_157/Conv2D_bn_offset"], "device": "/device:CPU:0", "attr": {"data_format": {"s": "TkhXQw=="}, "epsilon": {"f": 0.0}, "dilations": {"list": {"i": ["1", "1", "1", "1"]}}, "fused_ops": {"list": {"s": ["Qmlhc0FkZA==", "UmVsdQ=="]}}, "use_cudnn_on_gpu": {"b": true}, "T": {"type": "DT_FLOAT"}, "leakyrelu_alpha": {"f": 0.2}, "filter_format": {"s": "SFdJTw=="}, "explicit_paddings": {"list": {}}, "padding": {"s": "U0FNRQ=="}, "TArgs": {"list": {"type": ["DT_FLOAT"]}}, "num_host_args": {"i": "0"}, "strides": {"list": {"i": ["1", "1", "1", "1"]}}, "num_args": {"i": "1"}}}, {"name": "StatefulPartitionedCall/inception_v3/activation_160/Relu", "op": "_FusedConv2D", "input": ["StatefulPartitionedCall/inception_v3/activation_159/Relu", "StatefulPartitionedCall/inception_v3/conv2d_160/Conv2D_weights", "StatefulPartitionedCall/inception_v3/conv2d_160/Conv2D_bn_offset"], "device": "/device:CPU:0", "attr": {"epsilon": {"f": 0.0}, "strides": {"list": {"i": ["1", "1", "1", "1"]}}, "use_cudnn_on_gpu": {"b": true}, "num_args": {"i": "1"}, "TArgs": {"list": {"type": ["DT_FLOAT"]}}, "data_format": {"s": "TkhXQw=="}, "num_host_args": {"i": "0"}, "dilations": {"list": {"i": ["1", "1", "1", "1"]}}, "filter_format": {"s": "SFdJTw=="}, "T": {"type": "DT_FLOAT"}, "leakyrelu_alpha": {"f": 0.2}, "padding": {"s": "U0FNRQ=="}, "explicit_paddings": {"list": {}}, "fused_ops": {"list": {"s": ["Qmlhc0FkZA==", "UmVsdQ=="]}}}}, {"name": "StatefulPartitionedCall/inception_v3/activation_161/Relu", "op": "_FusedConv2D", "input": ["StatefulPartitionedCall/inception_v3/activation_160/Relu", "StatefulPartitionedCall/inception_v3/conv2d_161/Conv2D_weights", "StatefulPartitionedCall/inception_v3/conv2d_161/Conv2D_bn_offset"], "device": "/device:CPU:0", "attr": {"explicit_paddings": {"list": {}}, "fused_ops": {"list": {"s": ["Qmlhc0FkZA==", "UmVsdQ=="]}}, "strides": {"list": {"i": ["1", "1", "1", "1"]}}, "use_cudnn_on_gpu": {"b": true}, "num_host_args": {"i": "0"}, "T": {"type": "DT_FLOAT"}, "epsilon": {"f": 0.0}, "filter_format": {"s": "SFdJTw=="}, "data_format": {"s": "TkhXQw=="}, "num_args": {"i": "1"}, "padding": {"s": "U0FNRQ=="}, "TArgs": {"list": {"type": ["DT_FLOAT"]}}, "dilations": {"list": {"i": ["1", "1", "1", "1"]}}, "leakyrelu_alpha": {"f": 0.2}}}, {"name": "StatefulPartitionedCall/inception_v3/activation_162/Relu", "op": "_FusedConv2D", "input": ["StatefulPartitionedCall/inception_v3/activation_161/Relu", "StatefulPartitionedCall/inception_v3/conv2d_162/Conv2D_weights", "StatefulPartitionedCall/inception_v3/conv2d_162/Conv2D_bn_offset"], "device": "/device:CPU:0", "attr": {"TArgs": {"list": {"type": ["DT_FLOAT"]}}, "leakyrelu_alpha": {"f": 0.2}, "use_cudnn_on_gpu": {"b": true}, "T": {"type": "DT_FLOAT"}, "dilations": {"list": {"i": ["1", "1", "1", "1"]}}, "data_format": {"s": "TkhXQw=="}, "num_host_args": {"i": "0"}, "epsilon": {"f": 0.0}, "num_args": {"i": "1"}, "strides": {"list": {"i": ["1", "1", "1", "1"]}}, "padding": {"s": "U0FNRQ=="}, "filter_format": {"s": "SFdJTw=="}, "fused_ops": {"list": {"s": ["Qmlhc0FkZA==", "UmVsdQ=="]}}, "explicit_paddings": {"list": {}}}}, {"name": "StatefulPartitionedCall/inception_v3/mixed7/concat", "op": "ConcatV2", "input": ["StatefulPartitionedCall/inception_v3/activation_154/Relu", "StatefulPartitionedCall/inception_v3/activation_157/Relu", "StatefulPartitionedCall/inception_v3/activation_162/Relu", "StatefulPartitionedCall/inception_v3/activation_163/Relu", "StatefulPartitionedCall/inception_v3/mixed7/concat/axis"], "attr": {"T": {"type": "DT_FLOAT"}, "N": {"i": "4"}, "Tidx": {"type": "DT_INT32"}}}, {"name": "StatefulPartitionedCall/inception_v3/max_pooling2d_7/MaxPool", "op": "MaxPool", "input": ["StatefulPartitionedCall/inception_v3/mixed7/concat"], "attr": {"explicit_paddings": {"list": {}}, "T": {"type": "DT_FLOAT"}, "ksize": {"list": {"i": ["1", "3", "3", "1"]}}, "data_format": {"s": "TkhXQw=="}, "strides": {"list": {"i": ["1", "2", "2", "1"]}}, "padding": {"s": "VkFMSUQ="}}}, {"name": "StatefulPartitionedCall/inception_v3/activation_164/Relu", "op": "_FusedConv2D", "input": ["StatefulPartitionedCall/inception_v3/mixed7/concat", "StatefulPartitionedCall/inception_v3/conv2d_164/Conv2D_weights", "StatefulPartitionedCall/inception_v3/conv2d_164/Conv2D_bn_offset"], "device": "/device:CPU:0", "attr": {"num_host_args": {"i": "0"}, "filter_format": {"s": "SFdJTw=="}, "explicit_paddings": {"list": {}}, "data_format": {"s": "TkhXQw=="}, "leakyrelu_alpha": {"f": 0.2}, "dilations": {"list": {"i": ["1", "1", "1", "1"]}}, "T": {"type": "DT_FLOAT"}, "strides": {"list": {"i": ["1", "1", "1", "1"]}}, "fused_ops": {"list": {"s": ["Qmlhc0FkZA==", "UmVsdQ=="]}}, "epsilon": {"f": 0.0}, "use_cudnn_on_gpu": {"b": true}, "TArgs": {"list": {"type": ["DT_FLOAT"]}}, "num_args": {"i": "1"}, "padding": {"s": "U0FNRQ=="}}}, {"name": "StatefulPartitionedCall/inception_v3/activation_166/Relu", "op": "_FusedConv2D", "input": ["StatefulPartitionedCall/inception_v3/mixed7/concat", "StatefulPartitionedCall/inception_v3/conv2d_166/Conv2D_weights", "StatefulPartitionedCall/inception_v3/conv2d_166/Conv2D_bn_offset"], "device": "/device:CPU:0", "attr": {"strides": {"list": {"i": ["1", "1", "1", "1"]}}, "leakyrelu_alpha": {"f": 0.2}, "num_host_args": {"i": "0"}, "padding": {"s": "U0FNRQ=="}, "dilations": {"list": {"i": ["1", "1", "1", "1"]}}, "filter_format": {"s": "SFdJTw=="}, "num_args": {"i": "1"}, "data_format": {"s": "TkhXQw=="}, "use_cudnn_on_gpu": {"b": true}, "TArgs": {"list": {"type": ["DT_FLOAT"]}}, "fused_ops": {"list": {"s": ["Qmlhc0FkZA==", "UmVsdQ=="]}}, "epsilon": {"f": 0.0}, "explicit_paddings": {"list": {}}, "T": {"type": "DT_FLOAT"}}}, {"name": "StatefulPartitionedCall/inception_v3/activation_165/Relu", "op": "_FusedConv2D", "input": ["StatefulPartitionedCall/inception_v3/activation_164/Relu", "StatefulPartitionedCall/inception_v3/conv2d_165/Conv2D_weights", "StatefulPartitionedCall/inception_v3/conv2d_165/Conv2D_bn_offset"], "device": "/device:CPU:0", "attr": {"strides": {"list": {"i": ["1", "2", "2", "1"]}}, "num_host_args": {"i": "0"}, "num_args": {"i": "1"}, "use_cudnn_on_gpu": {"b": true}, "filter_format": {"s": "SFdJTw=="}, "T": {"type": "DT_FLOAT"}, "data_format": {"s": "TkhXQw=="}, "dilations": {"list": {"i": ["1", "1", "1", "1"]}}, "padding": {"s": "VkFMSUQ="}, "fused_ops": {"list": {"s": ["Qmlhc0FkZA==", "UmVsdQ=="]}}, "TArgs": {"list": {"type": ["DT_FLOAT"]}}, "epsilon": {"f": 0.0}, "leakyrelu_alpha": {"f": 0.2}, "explicit_paddings": {"list": {}}}}, {"name": "StatefulPartitionedCall/inception_v3/activation_167/Relu", "op": "_FusedConv2D", "input": ["StatefulPartitionedCall/inception_v3/activation_166/Relu", "StatefulPartitionedCall/inception_v3/conv2d_167/Conv2D_weights", "StatefulPartitionedCall/inception_v3/conv2d_167/Conv2D_bn_offset"], "device": "/device:CPU:0", "attr": {"fused_ops": {"list": {"s": ["Qmlhc0FkZA==", "UmVsdQ=="]}}, "use_cudnn_on_gpu": {"b": true}, "num_args": {"i": "1"}, "TArgs": {"list": {"type": ["DT_FLOAT"]}}, "filter_format": {"s": "SFdJTw=="}, "strides": {"list": {"i": ["1", "1", "1", "1"]}}, "explicit_paddings": {"list": {}}, "dilations": {"list": {"i": ["1", "1", "1", "1"]}}, "data_format": {"s": "TkhXQw=="}, "padding": {"s": "U0FNRQ=="}, "T": {"type": "DT_FLOAT"}, "leakyrelu_alpha": {"f": 0.2}, "epsilon": {"f": 0.0}, "num_host_args": {"i": "0"}}}, {"name": "StatefulPartitionedCall/inception_v3/activation_168/Relu", "op": "_FusedConv2D", "input": ["StatefulPartitionedCall/inception_v3/activation_167/Relu", "StatefulPartitionedCall/inception_v3/conv2d_168/Conv2D_weights", "StatefulPartitionedCall/inception_v3/conv2d_168/Conv2D_bn_offset"], "device": "/device:CPU:0", "attr": {"epsilon": {"f": 0.0}, "data_format": {"s": "TkhXQw=="}, "fused_ops": {"list": {"s": ["Qmlhc0FkZA==", "UmVsdQ=="]}}, "leakyrelu_alpha": {"f": 0.2}, "T": {"type": "DT_FLOAT"}, "num_args": {"i": "1"}, "strides": {"list": {"i": ["1", "1", "1", "1"]}}, "filter_format": {"s": "SFdJTw=="}, "explicit_paddings": {"list": {}}, "num_host_args": {"i": "0"}, "TArgs": {"list": {"type": ["DT_FLOAT"]}}, "dilations": {"list": {"i": ["1", "1", "1", "1"]}}, "padding": {"s": "U0FNRQ=="}, "use_cudnn_on_gpu": {"b": true}}}, {"name": "StatefulPartitionedCall/inception_v3/activation_169/Relu", "op": "_FusedConv2D", "input": ["StatefulPartitionedCall/inception_v3/activation_168/Relu", "StatefulPartitionedCall/inception_v3/conv2d_169/Conv2D_weights", "StatefulPartitionedCall/inception_v3/conv2d_169/Conv2D_bn_offset"], "device": "/device:CPU:0", "attr": {"use_cudnn_on_gpu": {"b": true}, "T": {"type": "DT_FLOAT"}, "dilations": {"list": {"i": ["1", "1", "1", "1"]}}, "strides": {"list": {"i": ["1", "2", "2", "1"]}}, "padding": {"s": "VkFMSUQ="}, "explicit_paddings": {"list": {}}, "leakyrelu_alpha": {"f": 0.2}, "num_args": {"i": "1"}, "epsilon": {"f": 0.0}, "TArgs": {"list": {"type": ["DT_FLOAT"]}}, "data_format": {"s": "TkhXQw=="}, "filter_format": {"s": "SFdJTw=="}, "num_host_args": {"i": "0"}, "fused_ops": {"list": {"s": ["Qmlhc0FkZA==", "UmVsdQ=="]}}}}, {"name": "StatefulPartitionedCall/inception_v3/mixed8/concat", "op": "ConcatV2", "input": ["StatefulPartitionedCall/inception_v3/activation_165/Relu", "StatefulPartitionedCall/inception_v3/activation_169/Relu", "StatefulPartitionedCall/inception_v3/max_pooling2d_7/MaxPool", "StatefulPartitionedCall/inception_v3/mixed8/concat/axis"], "attr": {"Tidx": {"type": "DT_INT32"}, "T": {"type": "DT_FLOAT"}, "N": {"i": "3"}}}, {"name": "StatefulPartitionedCall/inception_v3/average_pooling2d_16/AvgPool", "op": "AvgPool", "input": ["StatefulPartitionedCall/inception_v3/mixed8/concat"], "attr": {"data_format": {"s": "TkhXQw=="}, "T": {"type": "DT_FLOAT"}, "ksize": {"list": {"i": ["1", "3", "3", "1"]}}, "strides": {"list": {"i": ["1", "1", "1", "1"]}}, "padding": {"s": "U0FNRQ=="}}}, {"name": "StatefulPartitionedCall/inception_v3/activation_170/Relu", "op": "_FusedConv2D", "input": ["StatefulPartitionedCall/inception_v3/mixed8/concat", "StatefulPartitionedCall/inception_v3/conv2d_170/Conv2D_weights", "StatefulPartitionedCall/inception_v3/conv2d_170/Conv2D_bn_offset"], "device": "/device:CPU:0", "attr": {"explicit_paddings": {"list": {}}, "use_cudnn_on_gpu": {"b": true}, "T": {"type": "DT_FLOAT"}, "num_args": {"i": "1"}, "filter_format": {"s": "SFdJTw=="}, "data_format": {"s": "TkhXQw=="}, "dilations": {"list": {"i": ["1", "1", "1", "1"]}}, "padding": {"s": "U0FNRQ=="}, "num_host_args": {"i": "0"}, "TArgs": {"list": {"type": ["DT_FLOAT"]}}, "epsilon": {"f": 0.0}, "fused_ops": {"list": {"s": ["Qmlhc0FkZA==", "UmVsdQ=="]}}, "leakyrelu_alpha": {"f": 0.2}, "strides": {"list": {"i": ["1", "1", "1", "1"]}}}}, {"name": "StatefulPartitionedCall/inception_v3/activation_171/Relu", "op": "_FusedConv2D", "input": ["StatefulPartitionedCall/inception_v3/mixed8/concat", "StatefulPartitionedCall/inception_v3/conv2d_171/Conv2D_weights", "StatefulPartitionedCall/inception_v3/conv2d_171/Conv2D_bn_offset"], "device": "/device:CPU:0", "attr": {"T": {"type": "DT_FLOAT"}, "num_host_args": {"i": "0"}, "data_format": {"s": "TkhXQw=="}, "epsilon": {"f": 0.0}, "padding": {"s": "U0FNRQ=="}, "explicit_paddings": {"list": {}}, "num_args": {"i": "1"}, "TArgs": {"list": {"type": ["DT_FLOAT"]}}, "fused_ops": {"list": {"s": ["Qmlhc0FkZA==", "UmVsdQ=="]}}, "strides": {"list": {"i": ["1", "1", "1", "1"]}}, "leakyrelu_alpha": {"f": 0.2}, "use_cudnn_on_gpu": {"b": true}, "dilations": {"list": {"i": ["1", "1", "1", "1"]}}, "filter_format": {"s": "SFdJTw=="}}}, {"name": "StatefulPartitionedCall/inception_v3/activation_174/Relu", "op": "_FusedConv2D", "input": ["StatefulPartitionedCall/inception_v3/mixed8/concat", "StatefulPartitionedCall/inception_v3/conv2d_174/Conv2D_weights", "StatefulPartitionedCall/inception_v3/conv2d_174/Conv2D_bn_offset"], "device": "/device:CPU:0", "attr": {"T": {"type": "DT_FLOAT"}, "use_cudnn_on_gpu": {"b": true}, "leakyrelu_alpha": {"f": 0.2}, "filter_format": {"s": "SFdJTw=="}, "num_host_args": {"i": "0"}, "padding": {"s": "U0FNRQ=="}, "fused_ops": {"list": {"s": ["Qmlhc0FkZA==", "UmVsdQ=="]}}, "strides": {"list": {"i": ["1", "1", "1", "1"]}}, "epsilon": {"f": 0.0}, "num_args": {"i": "1"}, "data_format": {"s": "TkhXQw=="}, "explicit_paddings": {"list": {}}, "dilations": {"list": {"i": ["1", "1", "1", "1"]}}, "TArgs": {"list": {"type": ["DT_FLOAT"]}}}}, {"name": "StatefulPartitionedCall/inception_v3/activation_178/Relu", "op": "_FusedConv2D", "input": ["StatefulPartitionedCall/inception_v3/average_pooling2d_16/AvgPool", "StatefulPartitionedCall/inception_v3/conv2d_178/Conv2D_weights", "StatefulPartitionedCall/inception_v3/conv2d_178/Conv2D_bn_offset"], "device": "/device:CPU:0", "attr": {"leakyrelu_alpha": {"f": 0.2}, "T": {"type": "DT_FLOAT"}, "fused_ops": {"list": {"s": ["Qmlhc0FkZA==", "UmVsdQ=="]}}, "num_host_args": {"i": "0"}, "padding": {"s": "U0FNRQ=="}, "dilations": {"list": {"i": ["1", "1", "1", "1"]}}, "explicit_paddings": {"list": {}}, "num_args": {"i": "1"}, "strides": {"list": {"i": ["1", "1", "1", "1"]}}, "filter_format": {"s": "SFdJTw=="}, "epsilon": {"f": 0.0}, "data_format": {"s": "TkhXQw=="}, "use_cudnn_on_gpu": {"b": true}, "TArgs": {"list": {"type": ["DT_FLOAT"]}}}}, {"name": "StatefulPartitionedCall/inception_v3/activation_173/Relu", "op": "_FusedConv2D", "input": ["StatefulPartitionedCall/inception_v3/activation_171/Relu", "StatefulPartitionedCall/inception_v3/conv2d_173/Conv2D_weights", "StatefulPartitionedCall/inception_v3/conv2d_173/Conv2D_bn_offset"], "device": "/device:CPU:0", "attr": {"explicit_paddings": {"list": {}}, "num_host_args": {"i": "0"}, "use_cudnn_on_gpu": {"b": true}, "leakyrelu_alpha": {"f": 0.2}, "padding": {"s": "U0FNRQ=="}, "dilations": {"list": {"i": ["1", "1", "1", "1"]}}, "data_format": {"s": "TkhXQw=="}, "TArgs": {"list": {"type": ["DT_FLOAT"]}}, "epsilon": {"f": 0.0}, "strides": {"list": {"i": ["1", "1", "1", "1"]}}, "num_args": {"i": "1"}, "filter_format": {"s": "SFdJTw=="}, "fused_ops": {"list": {"s": ["Qmlhc0FkZA==", "UmVsdQ=="]}}, "T": {"type": "DT_FLOAT"}}}, {"name": "StatefulPartitionedCall/inception_v3/activation_172/Relu", "op": "_FusedConv2D", "input": ["StatefulPartitionedCall/inception_v3/activation_171/Relu", "StatefulPartitionedCall/inception_v3/conv2d_172/Conv2D_weights", "StatefulPartitionedCall/inception_v3/conv2d_172/Conv2D_bn_offset"], "device": "/device:CPU:0", "attr": {"dilations": {"list": {"i": ["1", "1", "1", "1"]}}, "leakyrelu_alpha": {"f": 0.2}, "num_args": {"i": "1"}, "epsilon": {"f": 0.0}, "explicit_paddings": {"list": {}}, "TArgs": {"list": {"type": ["DT_FLOAT"]}}, "use_cudnn_on_gpu": {"b": true}, "padding": {"s": "U0FNRQ=="}, "strides": {"list": {"i": ["1", "1", "1", "1"]}}, "filter_format": {"s": "SFdJTw=="}, "num_host_args": {"i": "0"}, "data_format": {"s": "TkhXQw=="}, "T": {"type": "DT_FLOAT"}, "fused_ops": {"list": {"s": ["Qmlhc0FkZA==", "UmVsdQ=="]}}}}, {"name": "StatefulPartitionedCall/inception_v3/activation_175/Relu", "op": "_FusedConv2D", "input": ["StatefulPartitionedCall/inception_v3/activation_174/Relu", "StatefulPartitionedCall/inception_v3/conv2d_175/Conv2D_weights", "StatefulPartitionedCall/inception_v3/conv2d_175/Conv2D_bn_offset"], "device": "/device:CPU:0", "attr": {"num_host_args": {"i": "0"}, "num_args": {"i": "1"}, "leakyrelu_alpha": {"f": 0.2}, "use_cudnn_on_gpu": {"b": true}, "padding": {"s": "U0FNRQ=="}, "explicit_paddings": {"list": {}}, "data_format": {"s": "TkhXQw=="}, "epsilon": {"f": 0.0}, "TArgs": {"list": {"type": ["DT_FLOAT"]}}, "filter_format": {"s": "SFdJTw=="}, "dilations": {"list": {"i": ["1", "1", "1", "1"]}}, "T": {"type": "DT_FLOAT"}, "fused_ops": {"list": {"s": ["Qmlhc0FkZA==", "UmVsdQ=="]}}, "strides": {"list": {"i": ["1", "1", "1", "1"]}}}}, {"name": "StatefulPartitionedCall/inception_v3/activation_176/Relu", "op": "_FusedConv2D", "input": ["StatefulPartitionedCall/inception_v3/activation_175/Relu", "StatefulPartitionedCall/inception_v3/conv2d_176/Conv2D_weights", "StatefulPartitionedCall/inception_v3/conv2d_176/Conv2D_bn_offset"], "device": "/device:CPU:0", "attr": {"TArgs": {"list": {"type": ["DT_FLOAT"]}}, "strides": {"list": {"i": ["1", "1", "1", "1"]}}, "T": {"type": "DT_FLOAT"}, "explicit_paddings": {"list": {}}, "padding": {"s": "U0FNRQ=="}, "data_format": {"s": "TkhXQw=="}, "epsilon": {"f": 0.0}, "use_cudnn_on_gpu": {"b": true}, "num_args": {"i": "1"}, "num_host_args": {"i": "0"}, "dilations": {"list": {"i": ["1", "1", "1", "1"]}}, "leakyrelu_alpha": {"f": 0.2}, "fused_ops": {"list": {"s": ["Qmlhc0FkZA==", "UmVsdQ=="]}}, "filter_format": {"s": "SFdJTw=="}}}, {"name": "StatefulPartitionedCall/inception_v3/activation_177/Relu", "op": "_FusedConv2D", "input": ["StatefulPartitionedCall/inception_v3/activation_175/Relu", "StatefulPartitionedCall/inception_v3/conv2d_177/Conv2D_weights", "StatefulPartitionedCall/inception_v3/conv2d_177/Conv2D_bn_offset"], "device": "/device:CPU:0", "attr": {"num_args": {"i": "1"}, "strides": {"list": {"i": ["1", "1", "1", "1"]}}, "epsilon": {"f": 0.0}, "filter_format": {"s": "SFdJTw=="}, "data_format": {"s": "TkhXQw=="}, "TArgs": {"list": {"type": ["DT_FLOAT"]}}, "num_host_args": {"i": "0"}, "use_cudnn_on_gpu": {"b": true}, "T": {"type": "DT_FLOAT"}, "fused_ops": {"list": {"s": ["Qmlhc0FkZA==", "UmVsdQ=="]}}, "padding": {"s": "U0FNRQ=="}, "leakyrelu_alpha": {"f": 0.2}, "explicit_paddings": {"list": {}}, "dilations": {"list": {"i": ["1", "1", "1", "1"]}}}}, {"name": "StatefulPartitionedCall/inception_v3/mixed9/concat", "op": "ConcatV2", "input": ["StatefulPartitionedCall/inception_v3/activation_170/Relu", "StatefulPartitionedCall/inception_v3/activation_172/Relu", "StatefulPartitionedCall/inception_v3/activation_173/Relu", "StatefulPartitionedCall/inception_v3/activation_176/Relu", "StatefulPartitionedCall/inception_v3/activation_177/Relu", "StatefulPartitionedCall/inception_v3/activation_178/Relu", "StatefulPartitionedCall/inception_v3/mixed9/concat/axis"], "attr": {"T": {"type": "DT_FLOAT"}, "N": {"i": "6"}, "Tidx": {"type": "DT_INT32"}}}, {"name": "StatefulPartitionedCall/inception_v3/average_pooling2d_17/AvgPool", "op": "AvgPool", "input": ["StatefulPartitionedCall/inception_v3/mixed9/concat"], "attr": {"data_format": {"s": "TkhXQw=="}, "strides": {"list": {"i": ["1", "1", "1", "1"]}}, "padding": {"s": "U0FNRQ=="}, "T": {"type": "DT_FLOAT"}, "ksize": {"list": {"i": ["1", "3", "3", "1"]}}}}, {"name": "StatefulPartitionedCall/inception_v3/activation_179/Relu", "op": "_FusedConv2D", "input": ["StatefulPartitionedCall/inception_v3/mixed9/concat", "StatefulPartitionedCall/inception_v3/conv2d_179/Conv2D_weights", "StatefulPartitionedCall/inception_v3/conv2d_179/Conv2D_bn_offset"], "device": "/device:CPU:0", "attr": {"T": {"type": "DT_FLOAT"}, "leakyrelu_alpha": {"f": 0.2}, "use_cudnn_on_gpu": {"b": true}, "num_args": {"i": "1"}, "dilations": {"list": {"i": ["1", "1", "1", "1"]}}, "explicit_paddings": {"list": {}}, "padding": {"s": "U0FNRQ=="}, "strides": {"list": {"i": ["1", "1", "1", "1"]}}, "TArgs": {"list": {"type": ["DT_FLOAT"]}}, "fused_ops": {"list": {"s": ["Qmlhc0FkZA==", "UmVsdQ=="]}}, "epsilon": {"f": 0.0}, "num_host_args": {"i": "0"}, "filter_format": {"s": "SFdJTw=="}, "data_format": {"s": "TkhXQw=="}}}, {"name": "StatefulPartitionedCall/inception_v3/activation_180/Relu", "op": "_FusedConv2D", "input": ["StatefulPartitionedCall/inception_v3/mixed9/concat", "StatefulPartitionedCall/inception_v3/conv2d_180/Conv2D_weights", "StatefulPartitionedCall/inception_v3/conv2d_180/Conv2D_bn_offset"], "device": "/device:CPU:0", "attr": {"fused_ops": {"list": {"s": ["Qmlhc0FkZA==", "UmVsdQ=="]}}, "TArgs": {"list": {"type": ["DT_FLOAT"]}}, "epsilon": {"f": 0.0}, "filter_format": {"s": "SFdJTw=="}, "padding": {"s": "U0FNRQ=="}, "leakyrelu_alpha": {"f": 0.2}, "explicit_paddings": {"list": {}}, "num_args": {"i": "1"}, "T": {"type": "DT_FLOAT"}, "data_format": {"s": "TkhXQw=="}, "use_cudnn_on_gpu": {"b": true}, "num_host_args": {"i": "0"}, "dilations": {"list": {"i": ["1", "1", "1", "1"]}}, "strides": {"list": {"i": ["1", "1", "1", "1"]}}}}, {"name": "StatefulPartitionedCall/inception_v3/activation_183/Relu", "op": "_FusedConv2D", "input": ["StatefulPartitionedCall/inception_v3/mixed9/concat", "StatefulPartitionedCall/inception_v3/conv2d_183/Conv2D_weights", "StatefulPartitionedCall/inception_v3/conv2d_183/Conv2D_bn_offset"], "device": "/device:CPU:0", "attr": {"num_args": {"i": "1"}, "explicit_paddings": {"list": {}}, "epsilon": {"f": 0.0}, "strides": {"list": {"i": ["1", "1", "1", "1"]}}, "num_host_args": {"i": "0"}, "padding": {"s": "U0FNRQ=="}, "fused_ops": {"list": {"s": ["Qmlhc0FkZA==", "UmVsdQ=="]}}, "filter_format": {"s": "SFdJTw=="}, "data_format": {"s": "TkhXQw=="}, "TArgs": {"list": {"type": ["DT_FLOAT"]}}, "T": {"type": "DT_FLOAT"}, "dilations": {"list": {"i": ["1", "1", "1", "1"]}}, "leakyrelu_alpha": {"f": 0.2}, "use_cudnn_on_gpu": {"b": true}}}, {"name": "StatefulPartitionedCall/inception_v3/activation_187/Relu", "op": "_FusedConv2D", "input": ["StatefulPartitionedCall/inception_v3/average_pooling2d_17/AvgPool", "StatefulPartitionedCall/inception_v3/conv2d_187/Conv2D_weights", "StatefulPartitionedCall/inception_v3/conv2d_187/Conv2D_bn_offset"], "device": "/device:CPU:0", "attr": {"leakyrelu_alpha": {"f": 0.2}, "strides": {"list": {"i": ["1", "1", "1", "1"]}}, "num_host_args": {"i": "0"}, "dilations": {"list": {"i": ["1", "1", "1", "1"]}}, "epsilon": {"f": 0.0}, "fused_ops": {"list": {"s": ["Qmlhc0FkZA==", "UmVsdQ=="]}}, "num_args": {"i": "1"}, "padding": {"s": "U0FNRQ=="}, "filter_format": {"s": "SFdJTw=="}, "TArgs": {"list": {"type": ["DT_FLOAT"]}}, "use_cudnn_on_gpu": {"b": true}, "explicit_paddings": {"list": {}}, "data_format": {"s": "TkhXQw=="}, "T": {"type": "DT_FLOAT"}}}, {"name": "StatefulPartitionedCall/inception_v3/activation_182/Relu", "op": "_FusedConv2D", "input": ["StatefulPartitionedCall/inception_v3/activation_180/Relu", "StatefulPartitionedCall/inception_v3/conv2d_182/Conv2D_weights", "StatefulPartitionedCall/inception_v3/conv2d_182/Conv2D_bn_offset"], "device": "/device:CPU:0", "attr": {"explicit_paddings": {"list": {}}, "num_host_args": {"i": "0"}, "T": {"type": "DT_FLOAT"}, "TArgs": {"list": {"type": ["DT_FLOAT"]}}, "filter_format": {"s": "SFdJTw=="}, "fused_ops": {"list": {"s": ["Qmlhc0FkZA==", "UmVsdQ=="]}}, "use_cudnn_on_gpu": {"b": true}, "epsilon": {"f": 0.0}, "data_format": {"s": "TkhXQw=="}, "leakyrelu_alpha": {"f": 0.2}, "num_args": {"i": "1"}, "padding": {"s": "U0FNRQ=="}, "dilations": {"list": {"i": ["1", "1", "1", "1"]}}, "strides": {"list": {"i": ["1", "1", "1", "1"]}}}}, {"name": "StatefulPartitionedCall/inception_v3/activation_181/Relu", "op": "_FusedConv2D", "input": ["StatefulPartitionedCall/inception_v3/activation_180/Relu", "StatefulPartitionedCall/inception_v3/conv2d_181/Conv2D_weights", "StatefulPartitionedCall/inception_v3/conv2d_181/Conv2D_bn_offset"], "device": "/device:CPU:0", "attr": {"dilations": {"list": {"i": ["1", "1", "1", "1"]}}, "num_args": {"i": "1"}, "padding": {"s": "U0FNRQ=="}, "num_host_args": {"i": "0"}, "epsilon": {"f": 0.0}, "strides": {"list": {"i": ["1", "1", "1", "1"]}}, "leakyrelu_alpha": {"f": 0.2}, "explicit_paddings": {"list": {}}, "fused_ops": {"list": {"s": ["Qmlhc0FkZA==", "UmVsdQ=="]}}, "TArgs": {"list": {"type": ["DT_FLOAT"]}}, "data_format": {"s": "TkhXQw=="}, "filter_format": {"s": "SFdJTw=="}, "use_cudnn_on_gpu": {"b": true}, "T": {"type": "DT_FLOAT"}}}, {"name": "StatefulPartitionedCall/inception_v3/activation_184/Relu", "op": "_FusedConv2D", "input": ["StatefulPartitionedCall/inception_v3/activation_183/Relu", "StatefulPartitionedCall/inception_v3/conv2d_184/Conv2D_weights", "StatefulPartitionedCall/inception_v3/conv2d_184/Conv2D_bn_offset"], "device": "/device:CPU:0", "attr": {"dilations": {"list": {"i": ["1", "1", "1", "1"]}}, "TArgs": {"list": {"type": ["DT_FLOAT"]}}, "padding": {"s": "U0FNRQ=="}, "epsilon": {"f": 0.0}, "explicit_paddings": {"list": {}}, "filter_format": {"s": "SFdJTw=="}, "data_format": {"s": "TkhXQw=="}, "leakyrelu_alpha": {"f": 0.2}, "num_args": {"i": "1"}, "use_cudnn_on_gpu": {"b": true}, "fused_ops": {"list": {"s": ["Qmlhc0FkZA==", "UmVsdQ=="]}}, "T": {"type": "DT_FLOAT"}, "strides": {"list": {"i": ["1", "1", "1", "1"]}}, "num_host_args": {"i": "0"}}}, {"name": "StatefulPartitionedCall/inception_v3/activation_186/Relu", "op": "_FusedConv2D", "input": ["StatefulPartitionedCall/inception_v3/activation_184/Relu", "StatefulPartitionedCall/inception_v3/conv2d_186/Conv2D_weights", "StatefulPartitionedCall/inception_v3/conv2d_186/Conv2D_bn_offset"], "device": "/device:CPU:0", "attr": {"padding": {"s": "U0FNRQ=="}, "use_cudnn_on_gpu": {"b": true}, "dilations": {"list": {"i": ["1", "1", "1", "1"]}}, "TArgs": {"list": {"type": ["DT_FLOAT"]}}, "filter_format": {"s": "SFdJTw=="}, "num_args": {"i": "1"}, "num_host_args": {"i": "0"}, "data_format": {"s": "TkhXQw=="}, "epsilon": {"f": 0.0}, "leakyrelu_alpha": {"f": 0.2}, "explicit_paddings": {"list": {}}, "fused_ops": {"list": {"s": ["Qmlhc0FkZA==", "UmVsdQ=="]}}, "T": {"type": "DT_FLOAT"}, "strides": {"list": {"i": ["1", "1", "1", "1"]}}}}, {"name": "StatefulPartitionedCall/inception_v3/activation_185/Relu", "op": "_FusedConv2D", "input": ["StatefulPartitionedCall/inception_v3/activation_184/Relu", "StatefulPartitionedCall/inception_v3/conv2d_185/Conv2D_weights", "StatefulPartitionedCall/inception_v3/conv2d_185/Conv2D_bn_offset"], "device": "/device:CPU:0", "attr": {"TArgs": {"list": {"type": ["DT_FLOAT"]}}, "strides": {"list": {"i": ["1", "1", "1", "1"]}}, "num_host_args": {"i": "0"}, "explicit_paddings": {"list": {}}, "dilations": {"list": {"i": ["1", "1", "1", "1"]}}, "T": {"type": "DT_FLOAT"}, "filter_format": {"s": "SFdJTw=="}, "leakyrelu_alpha": {"f": 0.2}, "num_args": {"i": "1"}, "padding": {"s": "U0FNRQ=="}, "data_format": {"s": "TkhXQw=="}, "epsilon": {"f": 0.0}, "fused_ops": {"list": {"s": ["Qmlhc0FkZA==", "UmVsdQ=="]}}, "use_cudnn_on_gpu": {"b": true}}}, {"name": "StatefulPartitionedCall/inception_v3/mixed10/concat", "op": "ConcatV2", "input": ["StatefulPartitionedCall/inception_v3/activation_179/Relu", "StatefulPartitionedCall/inception_v3/activation_181/Relu", "StatefulPartitionedCall/inception_v3/activation_182/Relu", "StatefulPartitionedCall/inception_v3/activation_185/Relu", "StatefulPartitionedCall/inception_v3/activation_186/Relu", "StatefulPartitionedCall/inception_v3/activation_187/Relu", "StatefulPartitionedCall/inception_v3/mixed10/concat/axis"], "attr": {"T": {"type": "DT_FLOAT"}, "N": {"i": "6"}, "Tidx": {"type": "DT_INT32"}}}, {"name": "StatefulPartitionedCall/inception_v3/avg_pool/Mean", "op": "Mean", "input": ["StatefulPartitionedCall/inception_v3/mixed10/concat", "StatefulPartitionedCall/inception_v3/avg_pool/Mean/reduction_indices"], "attr": {"Tidx": {"type": "DT_INT32"}, "T": {"type": "DT_FLOAT"}, "keep_dims": {"b": false}}}, {"name": "StatefulPartitionedCall/inception_v3/predictions/BiasAdd", "op": "_FusedMatMul", "input": ["StatefulPartitionedCall/inception_v3/avg_pool/Mean", "StatefulPartitionedCall/inception_v3/predictions/MatMul/ReadVariableOp", "StatefulPartitionedCall/inception_v3/predictions/BiasAdd/ReadVariableOp"], "device": "/device:CPU:0", "attr": {"leakyrelu_alpha": {"f": 0.2}, "epsilon": {"f": 0.0}, "num_args": {"i": "1"}, "transpose_b": {"b": false}, "T": {"type": "DT_FLOAT"}, "fused_ops": {"list": {"s": ["Qmlhc0FkZA=="]}}, "transpose_a": {"b": false}}}, {"name": "StatefulPartitionedCall/inception_v3/predictions/Softmax", "op": "Softmax", "input": ["StatefulPartitionedCall/inception_v3/predictions/BiasAdd"], "attr": {"T": {"type": "DT_FLOAT"}}}, {"name": "Identity", "op": "Identity", "input": ["StatefulPartitionedCall/inception_v3/predictions/Softmax"], "attr": {"T": {"type": "DT_FLOAT"}}}], "library": {}, "versions": {"producer": 1286}}, "weightsManifest": [{"paths": ["group1-shard1of21.bin", "group1-shard2of21.bin", "group1-shard3of21.bin", "group1-shard4of21.bin", "group1-shard5of21.bin", "group1-shard6of21.bin", "group1-shard7of21.bin", "group1-shard8of21.bin", "group1-shard9of21.bin", "group1-shard10of21.bin", "group1-shard11of21.bin", "group1-shard12of21.bin", "group1-shard13of21.bin", "group1-shard14of21.bin", "group1-shard15of21.bin", "group1-shard16of21.bin", "group1-shard17of21.bin", "group1-shard18of21.bin", "group1-shard19of21.bin", "group1-shard20of21.bin", "group1-shard21of21.bin"], "weights": [{"name": "StatefulPartitionedCall/inception_v3/mixed0/concat/axis", "shape": [], "dtype": "int32"}, {"name": "StatefulPartitionedCall/inception_v3/mixed1/concat/axis", "shape": [], "dtype": "int32"}, {"name": "StatefulPartitionedCall/inception_v3/mixed2/concat/axis", "shape": [], "dtype": "int32"}, {"name": "StatefulPartitionedCall/inception_v3/mixed3/concat/axis", "shape": [], "dtype": "int32"}, {"name": "StatefulPartitionedCall/inception_v3/mixed4/concat/axis", "shape": [], "dtype": "int32"}, {"name": "StatefulPartitionedCall/inception_v3/mixed5/concat/axis", "shape": [], "dtype": "int32"}, {"name": "StatefulPartitionedCall/inception_v3/mixed6/concat/axis", "shape": [], "dtype": "int32"}, {"name": "StatefulPartitionedCall/inception_v3/mixed7/concat/axis", "shape": [], "dtype": "int32"}, {"name": "StatefulPartitionedCall/inception_v3/mixed8/concat/axis", "shape": [], "dtype": "int32"}, {"name": "StatefulPartitionedCall/inception_v3/mixed9/concat/axis", "shape": [], "dtype": "int32"}, {"name": "StatefulPartitionedCall/inception_v3/mixed10/concat/axis", "shape": [], "dtype": "int32"}, {"name": "StatefulPartitionedCall/inception_v3/avg_pool/Mean/reduction_indices", "shape": [2], "dtype": "int32"}, {"name": "StatefulPartitionedCall/inception_v3/predictions/MatMul/ReadVariableOp", "shape": [2048, 10], "dtype": "float32"}, {"name": "StatefulPartitionedCall/inception_v3/predictions/BiasAdd/ReadVariableOp", "shape": [10], "dtype": "float32"}, {"name": "StatefulPartitionedCall/inception_v3/conv2d_94/Conv2D_weights", "shape": [3, 3, 3, 32], "dtype": "float32"}, {"name": "StatefulPartitionedCall/inception_v3/conv2d_152/Conv2D_weights", "shape": [1, 7, 160, 192], "dtype": "float32"}, {"name": "StatefulPartitionedCall/inception_v3/conv2d_94/Conv2D_bn_offset", "shape": [32], "dtype": "float32"}, {"name": "StatefulPartitionedCall/inception_v3/conv2d_173/Conv2D_bn_offset", "shape": [384], "dtype": "float32"}, {"name": "StatefulPartitionedCall/inception_v3/conv2d_95/Conv2D_weights", "shape": [3, 3, 32, 32], "dtype": "float32"}, {"name": "StatefulPartitionedCall/inception_v3/conv2d_152/Conv2D_bn_offset", "shape": [192], "dtype": "float32"}, {"name": "StatefulPartitionedCall/inception_v3/conv2d_95/Conv2D_bn_offset", "shape": [32], "dtype": "float32"}, {"name": "StatefulPartitionedCall/inception_v3/conv2d_182/Conv2D_weights", "shape": [3, 1, 384, 384], "dtype": "float32"}, {"name": "StatefulPartitionedCall/inception_v3/conv2d_96/Conv2D_weights", "shape": [3, 3, 32, 64], "dtype": "float32"}, {"name": "StatefulPartitionedCall/inception_v3/conv2d_96/Conv2D_bn_offset", "shape": [64], "dtype": "float32"}, {"name": "StatefulPartitionedCall/inception_v3/conv2d_97/Conv2D_weights", "shape": [1, 1, 64, 80], "dtype": "float32"}, {"name": "StatefulPartitionedCall/inception_v3/conv2d_97/Conv2D_bn_offset", "shape": [80], "dtype": "float32"}, {"name": "StatefulPartitionedCall/inception_v3/conv2d_154/Conv2D_weights", "shape": [1, 1, 768, 192], "dtype": "float32"}, {"name": "StatefulPartitionedCall/inception_v3/conv2d_98/Conv2D_weights", "shape": [3, 3, 80, 192], "dtype": "float32"}, {"name": "StatefulPartitionedCall/inception_v3/conv2d_98/Conv2D_bn_offset", "shape": [192], "dtype": "float32"}, {"name": "StatefulPartitionedCall/inception_v3/conv2d_154/Conv2D_bn_offset", "shape": [192], "dtype": "float32"}, {"name": "StatefulPartitionedCall/inception_v3/conv2d_99/Conv2D_weights", "shape": [1, 1, 192, 64], "dtype": "float32"}, {"name": "StatefulPartitionedCall/inception_v3/conv2d_175/Conv2D_weights", "shape": [3, 3, 448, 384], "dtype": "float32"}, {"name": "StatefulPartitionedCall/inception_v3/conv2d_99/Conv2D_bn_offset", "shape": [64], "dtype": "float32"}, {"name": "StatefulPartitionedCall/inception_v3/conv2d_100/Conv2D_weights", "shape": [1, 1, 192, 48], "dtype": "float32"}, {"name": "StatefulPartitionedCall/inception_v3/conv2d_155/Conv2D_weights", "shape": [1, 1, 768, 192], "dtype": "float32"}, {"name": "StatefulPartitionedCall/inception_v3/conv2d_100/Conv2D_bn_offset", "shape": [48], "dtype": "float32"}, {"name": "StatefulPartitionedCall/inception_v3/conv2d_186/Conv2D_bn_offset", "shape": [384], "dtype": "float32"}, {"name": "StatefulPartitionedCall/inception_v3/conv2d_102/Conv2D_weights", "shape": [1, 1, 192, 64], "dtype": "float32"}, {"name": "StatefulPartitionedCall/inception_v3/conv2d_155/Conv2D_bn_offset", "shape": [192], "dtype": "float32"}, {"name": "StatefulPartitionedCall/inception_v3/conv2d_102/Conv2D_bn_offset", "shape": [64], "dtype": "float32"}, {"name": "StatefulPartitionedCall/inception_v3/conv2d_175/Conv2D_bn_offset", "shape": [384], "dtype": "float32"}, {"name": "StatefulPartitionedCall/inception_v3/conv2d_105/Conv2D_weights", "shape": [1, 1, 192, 32], "dtype": "float32"}, {"name": "StatefulPartitionedCall/inception_v3/conv2d_105/Conv2D_bn_offset", "shape": [32], "dtype": "float32"}, {"name": "StatefulPartitionedCall/inception_v3/conv2d_158/Conv2D_weights", "shape": [1, 1, 768, 192], "dtype": "float32"}, {"name": "StatefulPartitionedCall/inception_v3/conv2d_101/Conv2D_weights", "shape": [5, 5, 48, 64], "dtype": "float32"}, {"name": "StatefulPartitionedCall/inception_v3/conv2d_182/Conv2D_bn_offset", "shape": [384], "dtype": "float32"}, {"name": "StatefulPartitionedCall/inception_v3/conv2d_101/Conv2D_bn_offset", "shape": [64], "dtype": "float32"}, {"name": "StatefulPartitionedCall/inception_v3/conv2d_158/Conv2D_bn_offset", "shape": [192], "dtype": "float32"}, {"name": "StatefulPartitionedCall/inception_v3/conv2d_103/Conv2D_weights", "shape": [3, 3, 64, 96], "dtype": "float32"}, {"name": "StatefulPartitionedCall/inception_v3/conv2d_103/Conv2D_bn_offset", "shape": [96], "dtype": "float32"}, {"name": "StatefulPartitionedCall/inception_v3/conv2d_104/Conv2D_weights", "shape": [3, 3, 96, 96], "dtype": "float32"}, {"name": "StatefulPartitionedCall/inception_v3/conv2d_163/Conv2D_weights", "shape": [1, 1, 768, 192], "dtype": "float32"}, {"name": "StatefulPartitionedCall/inception_v3/conv2d_104/Conv2D_bn_offset", "shape": [96], "dtype": "float32"}, {"name": "StatefulPartitionedCall/inception_v3/conv2d_176/Conv2D_weights", "shape": [1, 3, 384, 384], "dtype": "float32"}, {"name": "StatefulPartitionedCall/inception_v3/conv2d_106/Conv2D_weights", "shape": [1, 1, 256, 64], "dtype": "float32"}, {"name": "StatefulPartitionedCall/inception_v3/conv2d_163/Conv2D_bn_offset", "shape": [192], "dtype": "float32"}, {"name": "StatefulPartitionedCall/inception_v3/conv2d_106/Conv2D_bn_offset", "shape": [64], "dtype": "float32"}, {"name": "StatefulPartitionedCall/inception_v3/conv2d_107/Conv2D_weights", "shape": [1, 1, 256, 48], "dtype": "float32"}, {"name": "StatefulPartitionedCall/inception_v3/conv2d_107/Conv2D_bn_offset", "shape": [48], "dtype": "float32"}, {"name": "StatefulPartitionedCall/inception_v3/conv2d_156/Conv2D_weights", "shape": [1, 7, 192, 192], "dtype": "float32"}, {"name": "StatefulPartitionedCall/inception_v3/conv2d_109/Conv2D_weights", "shape": [1, 1, 256, 64], "dtype": "float32"}, {"name": "StatefulPartitionedCall/inception_v3/conv2d_176/Conv2D_bn_offset", "shape": [384], "dtype": "float32"}, {"name": "StatefulPartitionedCall/inception_v3/conv2d_109/Conv2D_bn_offset", "shape": [64], "dtype": "float32"}, {"name": "StatefulPartitionedCall/inception_v3/conv2d_156/Conv2D_bn_offset", "shape": [192], "dtype": "float32"}, {"name": "StatefulPartitionedCall/inception_v3/conv2d_112/Conv2D_weights", "shape": [1, 1, 256, 64], "dtype": "float32"}, {"name": "StatefulPartitionedCall/inception_v3/conv2d_112/Conv2D_bn_offset", "shape": [64], "dtype": "float32"}, {"name": "StatefulPartitionedCall/inception_v3/conv2d_108/Conv2D_weights", "shape": [5, 5, 48, 64], "dtype": "float32"}, {"name": "StatefulPartitionedCall/inception_v3/conv2d_159/Conv2D_weights", "shape": [7, 1, 192, 192], "dtype": "float32"}, {"name": "StatefulPartitionedCall/inception_v3/conv2d_108/Conv2D_bn_offset", "shape": [64], "dtype": "float32"}, {"name": "StatefulPartitionedCall/inception_v3/conv2d_110/Conv2D_weights", "shape": [3, 3, 64, 96], "dtype": "float32"}, {"name": "StatefulPartitionedCall/inception_v3/conv2d_159/Conv2D_bn_offset", "shape": [192], "dtype": "float32"}, {"name": "StatefulPartitionedCall/inception_v3/conv2d_110/Conv2D_bn_offset", "shape": [96], "dtype": "float32"}, {"name": "StatefulPartitionedCall/inception_v3/conv2d_177/Conv2D_weights", "shape": [3, 1, 384, 384], "dtype": "float32"}, {"name": "StatefulPartitionedCall/inception_v3/conv2d_111/Conv2D_weights", "shape": [3, 3, 96, 96], "dtype": "float32"}, {"name": "StatefulPartitionedCall/inception_v3/conv2d_111/Conv2D_bn_offset", "shape": [96], "dtype": "float32"}, {"name": "StatefulPartitionedCall/inception_v3/conv2d_157/Conv2D_weights", "shape": [7, 1, 192, 192], "dtype": "float32"}, {"name": "StatefulPartitionedCall/inception_v3/conv2d_113/Conv2D_weights", "shape": [1, 1, 288, 64], "dtype": "float32"}, {"name": "StatefulPartitionedCall/inception_v3/conv2d_184/Conv2D_weights", "shape": [3, 3, 448, 384], "dtype": "float32"}, {"name": "StatefulPartitionedCall/inception_v3/conv2d_113/Conv2D_bn_offset", "shape": [64], "dtype": "float32"}, {"name": "StatefulPartitionedCall/inception_v3/conv2d_157/Conv2D_bn_offset", "shape": [192], "dtype": "float32"}, {"name": "StatefulPartitionedCall/inception_v3/conv2d_114/Conv2D_weights", "shape": [1, 1, 288, 48], "dtype": "float32"}, {"name": "StatefulPartitionedCall/inception_v3/conv2d_177/Conv2D_bn_offset", "shape": [384], "dtype": "float32"}, {"name": "StatefulPartitionedCall/inception_v3/conv2d_114/Conv2D_bn_offset", "shape": [48], "dtype": "float32"}, {"name": "StatefulPartitionedCall/inception_v3/conv2d_116/Conv2D_weights", "shape": [1, 1, 288, 64], "dtype": "float32"}, {"name": "StatefulPartitionedCall/inception_v3/conv2d_160/Conv2D_weights", "shape": [1, 7, 192, 192], "dtype": "float32"}, {"name": "StatefulPartitionedCall/inception_v3/conv2d_116/Conv2D_bn_offset", "shape": [64], "dtype": "float32"}, {"name": "StatefulPartitionedCall/inception_v3/conv2d_119/Conv2D_weights", "shape": [1, 1, 288, 64], "dtype": "float32"}, {"name": "StatefulPartitionedCall/inception_v3/conv2d_160/Conv2D_bn_offset", "shape": [192], "dtype": "float32"}, {"name": "StatefulPartitionedCall/inception_v3/conv2d_119/Conv2D_bn_offset", "shape": [64], "dtype": "float32"}, {"name": "StatefulPartitionedCall/inception_v3/conv2d_115/Conv2D_weights", "shape": [5, 5, 48, 64], "dtype": "float32"}, {"name": "StatefulPartitionedCall/inception_v3/conv2d_115/Conv2D_bn_offset", "shape": [64], "dtype": "float32"}, {"name": "StatefulPartitionedCall/inception_v3/conv2d_161/Conv2D_weights", "shape": [7, 1, 192, 192], "dtype": "float32"}, {"name": "StatefulPartitionedCall/inception_v3/conv2d_117/Conv2D_weights", "shape": [3, 3, 64, 96], "dtype": "float32"}, {"name": "StatefulPartitionedCall/inception_v3/conv2d_117/Conv2D_bn_offset", "shape": [96], "dtype": "float32"}, {"name": "StatefulPartitionedCall/inception_v3/conv2d_161/Conv2D_bn_offset", "shape": [192], "dtype": "float32"}, {"name": "StatefulPartitionedCall/inception_v3/conv2d_118/Conv2D_weights", "shape": [3, 3, 96, 96], "dtype": "float32"}, {"name": "StatefulPartitionedCall/inception_v3/conv2d_118/Conv2D_bn_offset", "shape": [96], "dtype": "float32"}, {"name": "StatefulPartitionedCall/inception_v3/conv2d_120/Conv2D_weights", "shape": [3, 3, 288, 384], "dtype": "float32"}, {"name": "StatefulPartitionedCall/inception_v3/conv2d_162/Conv2D_weights", "shape": [1, 7, 192, 192], "dtype": "float32"}, {"name": "StatefulPartitionedCall/inception_v3/conv2d_120/Conv2D_bn_offset", "shape": [384], "dtype": "float32"}, {"name": "StatefulPartitionedCall/inception_v3/conv2d_179/Conv2D_weights", "shape": [1, 1, 2048, 320], "dtype": "float32"}, {"name": "StatefulPartitionedCall/inception_v3/conv2d_121/Conv2D_weights", "shape": [1, 1, 288, 64], "dtype": "float32"}, {"name": "StatefulPartitionedCall/inception_v3/conv2d_162/Conv2D_bn_offset", "shape": [192], "dtype": "float32"}, {"name": "StatefulPartitionedCall/inception_v3/conv2d_121/Conv2D_bn_offset", "shape": [64], "dtype": "float32"}, {"name": "StatefulPartitionedCall/inception_v3/conv2d_184/Conv2D_bn_offset", "shape": [384], "dtype": "float32"}, {"name": "StatefulPartitionedCall/inception_v3/conv2d_122/Conv2D_weights", "shape": [3, 3, 64, 96], "dtype": "float32"}, {"name": "StatefulPartitionedCall/inception_v3/conv2d_122/Conv2D_bn_offset", "shape": [96], "dtype": "float32"}, {"name": "StatefulPartitionedCall/inception_v3/conv2d_123/Conv2D_weights", "shape": [3, 3, 96, 96], "dtype": "float32"}, {"name": "StatefulPartitionedCall/inception_v3/conv2d_123/Conv2D_bn_offset", "shape": [96], "dtype": "float32"}, {"name": "StatefulPartitionedCall/inception_v3/conv2d_164/Conv2D_weights", "shape": [1, 1, 768, 192], "dtype": "float32"}, {"name": "StatefulPartitionedCall/inception_v3/conv2d_124/Conv2D_weights", "shape": [1, 1, 768, 192], "dtype": "float32"}, {"name": "StatefulPartitionedCall/inception_v3/conv2d_179/Conv2D_bn_offset", "shape": [320], "dtype": "float32"}, {"name": "StatefulPartitionedCall/inception_v3/conv2d_124/Conv2D_bn_offset", "shape": [192], "dtype": "float32"}, {"name": "StatefulPartitionedCall/inception_v3/conv2d_164/Conv2D_bn_offset", "shape": [192], "dtype": "float32"}, {"name": "StatefulPartitionedCall/inception_v3/conv2d_125/Conv2D_weights", "shape": [1, 1, 768, 128], "dtype": "float32"}, {"name": "StatefulPartitionedCall/inception_v3/conv2d_125/Conv2D_bn_offset", "shape": [128], "dtype": "float32"}, {"name": "StatefulPartitionedCall/inception_v3/conv2d_128/Conv2D_weights", "shape": [1, 1, 768, 128], "dtype": "float32"}, {"name": "StatefulPartitionedCall/inception_v3/conv2d_166/Conv2D_weights", "shape": [1, 1, 768, 192], "dtype": "float32"}, {"name": "StatefulPartitionedCall/inception_v3/conv2d_128/Conv2D_bn_offset", "shape": [128], "dtype": "float32"}, {"name": "StatefulPartitionedCall/inception_v3/conv2d_133/Conv2D_weights", "shape": [1, 1, 768, 192], "dtype": "float32"}, {"name": "StatefulPartitionedCall/inception_v3/conv2d_166/Conv2D_bn_offset", "shape": [192], "dtype": "float32"}, {"name": "StatefulPartitionedCall/inception_v3/conv2d_133/Conv2D_bn_offset", "shape": [192], "dtype": "float32"}, {"name": "StatefulPartitionedCall/inception_v3/conv2d_180/Conv2D_weights", "shape": [1, 1, 2048, 384], "dtype": "float32"}, {"name": "StatefulPartitionedCall/inception_v3/conv2d_126/Conv2D_weights", "shape": [1, 7, 128, 128], "dtype": "float32"}, {"name": "StatefulPartitionedCall/inception_v3/conv2d_126/Conv2D_bn_offset", "shape": [128], "dtype": "float32"}, {"name": "StatefulPartitionedCall/inception_v3/conv2d_165/Conv2D_weights", "shape": [3, 3, 192, 320], "dtype": "float32"}, {"name": "StatefulPartitionedCall/inception_v3/conv2d_129/Conv2D_weights", "shape": [7, 1, 128, 128], "dtype": "float32"}, {"name": "StatefulPartitionedCall/inception_v3/conv2d_129/Conv2D_bn_offset", "shape": [128], "dtype": "float32"}, {"name": "StatefulPartitionedCall/inception_v3/conv2d_165/Conv2D_bn_offset", "shape": [320], "dtype": "float32"}, {"name": "StatefulPartitionedCall/inception_v3/conv2d_127/Conv2D_weights", "shape": [7, 1, 128, 192], "dtype": "float32"}, {"name": "StatefulPartitionedCall/inception_v3/conv2d_180/Conv2D_bn_offset", "shape": [384], "dtype": "float32"}, {"name": "StatefulPartitionedCall/inception_v3/conv2d_127/Conv2D_bn_offset", "shape": [192], "dtype": "float32"}, {"name": "StatefulPartitionedCall/inception_v3/conv2d_130/Conv2D_weights", "shape": [1, 7, 128, 128], "dtype": "float32"}, {"name": "StatefulPartitionedCall/inception_v3/conv2d_167/Conv2D_weights", "shape": [1, 7, 192, 192], "dtype": "float32"}, {"name": "StatefulPartitionedCall/inception_v3/conv2d_130/Conv2D_bn_offset", "shape": [128], "dtype": "float32"}, {"name": "StatefulPartitionedCall/inception_v3/conv2d_185/Conv2D_weights", "shape": [1, 3, 384, 384], "dtype": "float32"}, {"name": "StatefulPartitionedCall/inception_v3/conv2d_131/Conv2D_weights", "shape": [7, 1, 128, 128], "dtype": "float32"}, {"name": "StatefulPartitionedCall/inception_v3/conv2d_167/Conv2D_bn_offset", "shape": [192], "dtype": "float32"}, {"name": "StatefulPartitionedCall/inception_v3/conv2d_131/Conv2D_bn_offset", "shape": [128], "dtype": "float32"}, {"name": "StatefulPartitionedCall/inception_v3/conv2d_132/Conv2D_weights", "shape": [1, 7, 128, 192], "dtype": "float32"}, {"name": "StatefulPartitionedCall/inception_v3/conv2d_132/Conv2D_bn_offset", "shape": [192], "dtype": "float32"}, {"name": "StatefulPartitionedCall/inception_v3/conv2d_168/Conv2D_weights", "shape": [7, 1, 192, 192], "dtype": "float32"}, {"name": "StatefulPartitionedCall/inception_v3/conv2d_134/Conv2D_weights", "shape": [1, 1, 768, 192], "dtype": "float32"}, {"name": "StatefulPartitionedCall/inception_v3/conv2d_183/Conv2D_weights", "shape": [1, 1, 2048, 448], "dtype": "float32"}, {"name": "StatefulPartitionedCall/inception_v3/conv2d_134/Conv2D_bn_offset", "shape": [192], "dtype": "float32"}, {"name": "StatefulPartitionedCall/inception_v3/conv2d_168/Conv2D_bn_offset", "shape": [192], "dtype": "float32"}, {"name": "StatefulPartitionedCall/inception_v3/conv2d_135/Conv2D_weights", "shape": [1, 1, 768, 160], "dtype": "float32"}, {"name": "StatefulPartitionedCall/inception_v3/conv2d_135/Conv2D_bn_offset", "shape": [160], "dtype": "float32"}, {"name": "StatefulPartitionedCall/inception_v3/conv2d_138/Conv2D_weights", "shape": [1, 1, 768, 160], "dtype": "float32"}, {"name": "StatefulPartitionedCall/inception_v3/conv2d_169/Conv2D_weights", "shape": [3, 3, 192, 192], "dtype": "float32"}, {"name": "StatefulPartitionedCall/inception_v3/conv2d_138/Conv2D_bn_offset", "shape": [160], "dtype": "float32"}, {"name": "StatefulPartitionedCall/inception_v3/conv2d_183/Conv2D_bn_offset", "shape": [448], "dtype": "float32"}, {"name": "StatefulPartitionedCall/inception_v3/conv2d_143/Conv2D_weights", "shape": [1, 1, 768, 192], "dtype": "float32"}, {"name": "StatefulPartitionedCall/inception_v3/conv2d_169/Conv2D_bn_offset", "shape": [192], "dtype": "float32"}, {"name": "StatefulPartitionedCall/inception_v3/conv2d_143/Conv2D_bn_offset", "shape": [192], "dtype": "float32"}, {"name": "StatefulPartitionedCall/inception_v3/conv2d_185/Conv2D_bn_offset", "shape": [384], "dtype": "float32"}, {"name": "StatefulPartitionedCall/inception_v3/conv2d_136/Conv2D_weights", "shape": [1, 7, 160, 160], "dtype": "float32"}, {"name": "StatefulPartitionedCall/inception_v3/conv2d_136/Conv2D_bn_offset", "shape": [160], "dtype": "float32"}, {"name": "StatefulPartitionedCall/inception_v3/conv2d_139/Conv2D_weights", "shape": [7, 1, 160, 160], "dtype": "float32"}, {"name": "StatefulPartitionedCall/inception_v3/conv2d_139/Conv2D_bn_offset", "shape": [160], "dtype": "float32"}, {"name": "StatefulPartitionedCall/inception_v3/conv2d_170/Conv2D_weights", "shape": [1, 1, 1280, 320], "dtype": "float32"}, {"name": "StatefulPartitionedCall/inception_v3/conv2d_137/Conv2D_weights", "shape": [7, 1, 160, 192], "dtype": "float32"}, {"name": "StatefulPartitionedCall/inception_v3/conv2d_137/Conv2D_bn_offset", "shape": [192], "dtype": "float32"}, {"name": "StatefulPartitionedCall/inception_v3/conv2d_170/Conv2D_bn_offset", "shape": [320], "dtype": "float32"}, {"name": "StatefulPartitionedCall/inception_v3/conv2d_140/Conv2D_weights", "shape": [1, 7, 160, 160], "dtype": "float32"}, {"name": "StatefulPartitionedCall/inception_v3/conv2d_187/Conv2D_weights", "shape": [1, 1, 2048, 192], "dtype": "float32"}, {"name": "StatefulPartitionedCall/inception_v3/conv2d_140/Conv2D_bn_offset", "shape": [160], "dtype": "float32"}, {"name": "StatefulPartitionedCall/inception_v3/conv2d_141/Conv2D_weights", "shape": [7, 1, 160, 160], "dtype": "float32"}, {"name": "StatefulPartitionedCall/inception_v3/conv2d_171/Conv2D_weights", "shape": [1, 1, 1280, 384], "dtype": "float32"}, {"name": "StatefulPartitionedCall/inception_v3/conv2d_141/Conv2D_bn_offset", "shape": [160], "dtype": "float32"}, {"name": "StatefulPartitionedCall/inception_v3/conv2d_142/Conv2D_weights", "shape": [1, 7, 160, 192], "dtype": "float32"}, {"name": "StatefulPartitionedCall/inception_v3/conv2d_171/Conv2D_bn_offset", "shape": [384], "dtype": "float32"}, {"name": "StatefulPartitionedCall/inception_v3/conv2d_142/Conv2D_bn_offset", "shape": [192], "dtype": "float32"}, {"name": "StatefulPartitionedCall/inception_v3/conv2d_187/Conv2D_bn_offset", "shape": [192], "dtype": "float32"}, {"name": "StatefulPartitionedCall/inception_v3/conv2d_144/Conv2D_weights", "shape": [1, 1, 768, 192], "dtype": "float32"}, {"name": "StatefulPartitionedCall/inception_v3/conv2d_144/Conv2D_bn_offset", "shape": [192], "dtype": "float32"}, {"name": "StatefulPartitionedCall/inception_v3/conv2d_174/Conv2D_weights", "shape": [1, 1, 1280, 448], "dtype": "float32"}, {"name": "StatefulPartitionedCall/inception_v3/conv2d_145/Conv2D_weights", "shape": [1, 1, 768, 160], "dtype": "float32"}, {"name": "StatefulPartitionedCall/inception_v3/conv2d_145/Conv2D_bn_offset", "shape": [160], "dtype": "float32"}, {"name": "StatefulPartitionedCall/inception_v3/conv2d_174/Conv2D_bn_offset", "shape": [448], "dtype": "float32"}, {"name": "StatefulPartitionedCall/inception_v3/conv2d_148/Conv2D_weights", "shape": [1, 1, 768, 160], "dtype": "float32"}, {"name": "StatefulPartitionedCall/inception_v3/conv2d_148/Conv2D_bn_offset", "shape": [160], "dtype": "float32"}, {"name": "StatefulPartitionedCall/inception_v3/conv2d_153/Conv2D_weights", "shape": [1, 1, 768, 192], "dtype": "float32"}, {"name": "StatefulPartitionedCall/inception_v3/conv2d_178/Conv2D_weights", "shape": [1, 1, 1280, 192], "dtype": "float32"}, {"name": "StatefulPartitionedCall/inception_v3/conv2d_153/Conv2D_bn_offset", "shape": [192], "dtype": "float32"}, {"name": "StatefulPartitionedCall/inception_v3/conv2d_181/Conv2D_weights", "shape": [1, 3, 384, 384], "dtype": "float32"}, {"name": "StatefulPartitionedCall/inception_v3/conv2d_146/Conv2D_weights", "shape": [1, 7, 160, 160], "dtype": "float32"}, {"name": "StatefulPartitionedCall/inception_v3/conv2d_178/Conv2D_bn_offset", "shape": [192], "dtype": "float32"}, {"name": "StatefulPartitionedCall/inception_v3/conv2d_146/Conv2D_bn_offset", "shape": [160], "dtype": "float32"}, {"name": "StatefulPartitionedCall/inception_v3/conv2d_186/Conv2D_weights", "shape": [3, 1, 384, 384], "dtype": "float32"}, {"name": "StatefulPartitionedCall/inception_v3/conv2d_149/Conv2D_weights", "shape": [7, 1, 160, 160], "dtype": "float32"}, {"name": "StatefulPartitionedCall/inception_v3/conv2d_149/Conv2D_bn_offset", "shape": [160], "dtype": "float32"}, {"name": "StatefulPartitionedCall/inception_v3/conv2d_172/Conv2D_weights", "shape": [1, 3, 384, 384], "dtype": "float32"}, {"name": "StatefulPartitionedCall/inception_v3/conv2d_147/Conv2D_weights", "shape": [7, 1, 160, 192], "dtype": "float32"}, {"name": "StatefulPartitionedCall/inception_v3/conv2d_181/Conv2D_bn_offset", "shape": [384], "dtype": "float32"}, {"name": "StatefulPartitionedCall/inception_v3/conv2d_147/Conv2D_bn_offset", "shape": [192], "dtype": "float32"}, {"name": "StatefulPartitionedCall/inception_v3/conv2d_172/Conv2D_bn_offset", "shape": [384], "dtype": "float32"}, {"name": "StatefulPartitionedCall/inception_v3/conv2d_150/Conv2D_weights", "shape": [1, 7, 160, 160], "dtype": "float32"}, {"name": "StatefulPartitionedCall/inception_v3/conv2d_150/Conv2D_bn_offset", "shape": [160], "dtype": "float32"}, {"name": "StatefulPartitionedCall/inception_v3/conv2d_151/Conv2D_weights", "shape": [7, 1, 160, 160], "dtype": "float32"}, {"name": "StatefulPartitionedCall/inception_v3/conv2d_173/Conv2D_weights", "shape": [3, 1, 384, 384], "dtype": "float32"}, {"name": "StatefulPartitionedCall/inception_v3/conv2d_151/Conv2D_bn_offset", "shape": [160], "dtype": "float32"}]}]}